model/model.pth (torch, 16799 bytes, 4 tensors)

linear1.weight f4 [256, 11]
0	0x3ceb7f00	0.028747082
1	0x3e605b4f	0.21909831
2	0xbe939382	-0.28823477
3	0xbd83242a	-0.06403382
4	0xbe9ac11d	-0.3022546
5	0xbea480f2	-0.32129627
6	0xbe6ae6f2	-0.22939661
7	0xbdc726e6	-0.09724216
8	0xbe16ac6b	-0.1471421
9	0xbeac3629	-0.3363507
10	0xbe7819e1	-0.24228622
11	0xbdacb52f	-0.084329955
12	0xbe20ff6c	-0.15722436
13	0xbe4bd561	-0.19905616
14	0xbe2f46dd	-0.17116876
15	0xbe6371c7	-0.22211371
16	0xbe411f9e	-0.18859717
17	0x3c1eb4ee	0.009686692
18	0xbe971eea	-0.29515773
19	0xbed44c19	-0.41464308
20	0xbe84ab9d	-0.2591218
21	0xbb818a24	-0.003953235
22	0x3e055ac2	0.13022903
23	0x3d45dc77	0.048305955
24	0xbe03fafe	-0.12888715
25	0x3e2c791e	0.16843078
26	0x3d8cf18f	0.06882011
27	0x3d6d7467	0.057972338
28	0x3e25f29e	0.16205832
29	0xbed79636	-0.4210679
30	0xbde35b3a	-0.111013845
31	0xbe45f26e	-0.19330761
32	0xbf014d26	-0.50508344
33	0x3f81ba78	1.0135031
34	0xbf411e67	-0.75437015
35	0xbe04b809	-0.12960829
36	0xbd99f6fb	-0.07517811
37	0x3e4eaf15	0.20183976
38	0x3eed7dd4	0.46385062
39	0x3f319942	0.6937448
40	0xbe3a3c14	-0.1818698
41	0xbee96912	-0.45587975
42	0xbe06c45c	-0.13160843
43	0xbea5ed11	-0.3240743
44	0x3ea1c3c5	0.31594673
45	0xbedabbd5	-0.4272143
46	0xbeae7a70	-0.34077787
47	0xbe353673	-0.17696552
48	0xbe533fbb	-0.2062978
49	0x3d4b198b	0.049584907
50	0xbe1df37c	-0.15424913
51	0xbcb57d09	-0.022154348
52	0xbeb98ad2	-0.36238724
53	0xbeb26523	-0.34842786
54	0xbe3c42ed	-0.18384905
55	0xbe775716	-0.24154314
56	0xbd0ba2f8	-0.034090966
57	0xbd8f36c4	-0.069928676
58	0xbd12cfd9	-0.03584275
59	0x3d7d8a1c	0.06189929
60	0x3e1e8970	0.15482116
61	0x3ddc20cc	0.10748443
62	0xbe9dcacc	-0.30818784
63	0xbe4b83da	-0.19874516
64	0xbe75bdf8	-0.23998249
65	0xbd1bd420	-0.038044095
66	0x3db13734	0.08653107
67	0x3e082f40	0.13299274
68	0xbe95989d	-0.29217997
69	0xbe384f55	-0.17999013
70	0xbdae0415	-0.08496872
71	0xbbd1a138	-0.0063973926
72	0xbdee2960	-0.116289854
73	0xbe30bccf	-0.17259525
74	0x3d176edd	0.03697096
75	0xbe877c27	-0.26461908
76	0xbeebf876	-0.46087998
77	0x3f34f344	0.70683694
78	0x3df59c54	0.11992708
79	0xbd9299c7	-0.07158237
80	0xbead23b6	-0.33816308
81	0xbdb4aa4c	-0.08821544
82	0xbf123699	-0.5711456
83	0x3e6e9b07	0.23301326
84	0x3e919e44	0.2844106
85	0xbdaef5a2	-0.085429445
86	0x3e82223e	0.2541675
87	0xbede661d	-0.4343728
88	0x3dac7394	0.08420482
89	0xbdeffc68	-0.117180645
90	0x3daeef9c	0.085417956
91	0xbe2703cf	-0.16310047
92	0xbddf651c	-0.10907957
93	0xbe2e46c9	-0.1701919
94	0xbe7c8397	-0.24659573
95	0x3d9711b6	0.07376425
96	0xbda953d0	-0.08267939
97	0xbe566a41	-0.2093897
98	0xbe6d6c45	-0.23185833
99	0xbe5d3d42	-0.21605399
100	0x3cf05420	0.029336989
101	0x3db79fc0	0.08966017
102	0xbe227f7c	-0.15868944
103	0xbe217780	-0.15768242
104	0x3e4bbb70	0.1989572
105	0xbda82882	-0.08210851
106	0xbe02b581	-0.12764551
107	0xbe4c9102	-0.19977191
108	0xbd66fc2c	-0.056392834
109	0xbdc3c212	-0.095585
110	0xbe15b58d	-0.14620037
111	0xbe8d0b4a	-0.27547675
112	0xbe3ec535	-0.18629916
113	0xbd082834	-0.033241466
114	0x3ac8f093	0.0015330486
115	0x3b6e2007	0.0036335008
116	0xbddf50be	-0.10904072
117	0xbe06a033	-0.13147049
118	0xbe25a0cd	-0.16174622
119	0xbe54de0d	-0.2078783
120	0xbeb3c56d	-0.3511156
121	0xbe7d8251	-0.24756743
122	0x3d9532dc	0.07285091
123	0xbe38c5db	-0.18044226
124	0xbe155885	-0.14584549
125	0x3d383270	0.044969976
126	0xbd8504a2	-0.06495024
127	0xbe221ab2	-0.15830496
128	0xbe95328f	-0.29140136
129	0x3de11dbd	0.10992
130	0x3e1fb7d3	0.15597467
131	0x3de7ab9d	0.113120295
132	0x3f341624	0.70346284
133	0x3f5a2e7e	0.8522719
134	0x3e9e8270	0.3095889
135	0x3e07c6fc	0.132595
136	0xbd87157b	-0.06595894
137	0x3ddba2ab	0.10724386
138	0x3e504113	0.20337324
139	0xbdb92462	-0.090401426
140	0xbe600f11	-0.21880747
141	0xba8f45ac	-0.0010930798
142	0xbedbcf00	-0.42931366
143	0x3ed08da7	0.40733072
144	0xbe4ba563	-0.19887309
145	0x3ee55433	0.447908
146	0x3e14feda	0.14550343
147	0x3e720875	0.23636039
148	0xbdc09c99	-0.09404869
149	0x3d407bcd	0.046993066
150	0x3e409624	0.18807274
151	0xbee0bc1b	-0.43893513
152	0xbf15a242	-0.5845071
153	0x3ea7bad4	0.32759726
154	0xbe08d67c	-0.1336307
155	0x3fac79ce	1.3474672
156	0xbf4b576d	-0.79430276
157	0xbdddd3c9	-0.108314104
158	0xbee74280	-0.45167923
159	0x3cbda36b	0.023149213
160	0x3db39172	0.08767976
161	0xbebdf0c2	-0.37097746
162	0xbec501e0	-0.38477993
163	0xbe97de0f	-0.29661605
164	0x3c78075a	0.0151384715
165	0x3f3ff2d2	0.7497989
166	0x3fa9134a	1.3209012
167	0xbca44688	-0.020053163
168	0xbe77ce77	-0.24199854
169	0x3d9db3d8	0.07700318
170	0xbca532c9	-0.020165818
171	0xbf068bcf	-0.5255708
172	0xbebcb736	-0.3685853
173	0xbf356dc9	-0.70870644
174	0x3e590672	0.21193865
175	0x3d17da52	0.03707344
176	0xbdfe0d05	-0.12404827
177	0xbe51bbdc	-0.20481819
178	0xbec1dfc1	-0.37866023
179	0xbea8bb4f	-0.32955405
180	0xbdbb977c	-0.09159753
181	0xbeada7a5	-0.33916965
182	0xbeb4bdbb	-0.35301003
183	0xbe8c389b	-0.27386937
184	0xbed20e10	-0.41026354
185	0xbd8f3345	-0.06992201
186	0xbde6deca	-0.112729624
187	0x3d6027d0	0.05472547
188	0xbe9be827	-0.30450556
189	0x3e267beb	0.16258208
190	0xbd8c63f9	-0.06855006
191	0x3d915f73	0.070982836
192	0xbe9070d4	-0.2821108
193	0xbbd49404	-0.0064873714
194	0xbe674ba5	-0.2258745
195	0xbecc8d97	-0.39951774
196	0xbe76d68c	-0.2410528
197	0xb920f3b9	-0.00015349583
198	0xbdef2ec6	-0.11678843
199	0xbe8bddfc	-0.27317798
200	0xbe0630b3	-0.13104515
201	0xbe07076c	-0.13186425
202	0xbdf8d636	-0.121502325
203	0x3cc8fba8	0.024534062
204	0xbe95a752	-0.29229218
205	0x3de9ee9e	0.11422466
206	0xbdcdd3b0	-0.10050142
207	0x3dc9a75a	0.09846373
208	0xbd74f2f8	-0.059802026
209	0x3ec49d0c	0.38401067
210	0xbe95fc64	-0.2929412
211	0x3f01c8e3	0.50697154
212	0x3c72d27c	0.014820691
213	0xbedf42c2	-0.4360562
214	0xbc952cd9	-0.018209862
215	0xbf0fe89e	-0.5621432
216	0xbe0f1f51	-0.1397679
217	0x3ea8c686	0.3296396
218	0x3e6bea9d	0.23038717
219	0xbf7e5e71	-0.99362856
220	0x3e20250b	0.15639131
221	0xbe898305	-0.26857772
222	0x3ec82b5f	0.3909559
223	0xbe1bdecc	-0.15221709
224	0xbbd16bbc	-0.0063910168
225	0xbec6310c	-0.38709295
226	0xbd83c9b3	-0.064349554
227	0x3e30be89	0.17260183
228	0xbf003fd1	-0.50097376
229	0x3d3681a6	0.044557236
230	0xbe81f5f0	-0.25382948
231	0xbe394dd2	-0.18096092
232	0x3f2c2f58	0.6725974
233	0xbe3af0f4	-0.18255979
234	0xbebee699	-0.37285307
235	0xbe784dd5	-0.2424844
236	0x3c9e7cdf	0.019346653
237	0x3dfb0012	0.12255873
238	0xbe90b9e7	-0.28266832
239	0x3d6aadb0	0.057294548
240	0xbdcc6b5d	-0.099814154
241	0xbf23ad06	-0.6393589
242	0xbe6e0e38	-0.23247612
243	0x3bc6bcdc	0.0060649943
244	0xbe1bfa85	-0.15232284
245	0xbee645f7	-0.44975254
246	0x3c1b895c	0.009493198
247	0xbf0802de	-0.53129375
248	0x3d5d613f	0.05404782
249	0xbecea17c	-0.40357578
250	0x3d9a3fff	0.075317375
251	0x3d914081	0.07092381
252	0x3db594a2	0.0886624
253	0xbd3c2a8e	-0.04593902
254	0xbe270235	-0.16309436
255	0x3e527190	0.20551133

linear1.bias f4 [256]
0	0xbe8bd663	-0.27312002
1	0xbc2bb909	-0.010481128
2	0xbe44f655	-0.19234593
3	0xbb98acaf	-0.0046592574
4	0xbe3f59aa	-0.18686548
5	0xbecb9039	-0.3975847
6	0xbe3b65bd	-0.18300529
7	0xbe32dcff	-0.17467116
8	0xbdcecc5c	-0.10097572
9	0xbe981efe	-0.29711145
10	0xbdb95268	-0.09048921
11	0xbed89ce0	-0.42307186
12	0x3e0a662e	0.13515541
13	0xbec38e83	-0.38194665
14	0x3e51c837	0.20486532
15	0xbdca1a8d	-0.098683454
16	0xbd8b5aa6	-0.06804399
17	0xbe9e3cf0	-0.30905867
18	0xbed1e868	-0.40997624
19	0xbec69484	-0.38785183
20	0xbeac3faa	-0.33642322
21	0xbce15e39	-0.02751075
22	0xbe78490c	-0.24246615
23	0xbdfbfd11	-0.12304128
24	0xbe3eccb2	-0.18632773
25	0xbe2fbab7	-0.1716107
26	0xbe17e034	-0.1483162
27	0xbed0d7ca	-0.40789634
28	0xbeae9a91	-0.341023
29	0xbeb84e40	-0.359972
30	0xbeda5e2f	-0.4264998
31	0xbdeef1bd	-0.11667202
32	0xbedd1db7	-0.43186733
33	0xbe63ef0c	-0.22259158
34	0xbe3e03b3	-0.18556099
35	0xbe645bb6	-0.2230061
36	0xbc2e5d7a	-0.010642404
37	0xbed58702	-0.41704565
38	0xbe2ea989	-0.1705686
39	0xbeceb742	-0.4037419
40	0xbebe3468	-0.37149358
41	0xbeb795fc	-0.35856616
42	0xbe30f552	-0.17281082
43	0xbe63564f	-0.22200893
44	0xbf033b34	-0.5126221
45	0xbe779bcc	-0.24180526
46	0xbe4e4c6b	-0.20146339
47	0xbecf12e0	-0.40444088
48	0xbe8e9a8e	-0.2785229
49	0xbee0113d	-0.43763152
50	0xbe7e49b8	-0.24832809
51	0xbec89c20	-0.39181614
52	0xbeb79ef6	-0.35863465
53	0xbe7f090a	-0.24905792
54	0xbb9a1e49	-0.0047033173
55	0xbece5ea6	-0.40306586
56	0xbe643366	-0.22285232
57	0xbd8e7cf7	-0.06957429
58	0x3b3f3558	0.0029176082
59	0xbe9c1231	-0.3048263
60	0xbde33d15	-0.11095635
61	0xbe145deb	-0.14488952
62	0xbdf1bcfc	-0.11803624
63	0x3e1b536f	0.15168546
64	0xbe78ab9d	-0.24284215
65	0x3d8e97c4	0.06962541
66	0xbe29e278	-0.16590297
67	0x3dbdf0cb	0.09274443
68	0xbeacbf11	-0.33739522
69	0xbce08d42	-0.027411107
70	0xbe7c56d4	-0.24642497
71	0xbeb9cf40	-0.36290932
72	0xbe8bba0a	-0.27290374
73	0xbec545af	-0.38529727
74	0xbed05149	-0.40687016
75	0xbdae73ee	-0.085182056
76	0xbed0c81a	-0.40777665
77	0x3f12abb1	0.5729323
78	0xbda2b084	-0.07943824
79	0x3c0a670e	0.008447422
80	0xbea87889	-0.3290446
81	0xbea30345	-0.31838432
82	0xbc62b3b4	-0.01383679
83	0xbe90bfc7	-0.28271315
84	0xbdc4e835	-0.096146025
85	0xbefcc4ee	-0.49368995
86	0xbe424b8b	-0.1897413
87	0xbefce1ff	-0.4939117
88	0xbcd7a894	-0.026325502
89	0xbed38548	-0.41312623
90	0x3de05481	0.10953618
91	0xbe35d66c	-0.17757577
92	0xbe9b6d16	-0.30356663
93	0xbea5c399	-0.32375792
94	0xbe7d4380	-0.2473278
95	0xbda5c100	-0.080934525
96	0xbe29d502	-0.16585162
97	0xbe5c58ab	-0.21518199
98	0xbef74609	-0.4829562
99	0xbddc4dc6	-0.107570216
100	0xbed4db4e	-0.41573566
101	0x3e170168	0.1474663
102	0xbe1fef3e	-0.15618607
103	0xbe92a97f	-0.2864494
104	0xbe502190	-0.20325303
105	0x3db662cb	0.08905562
106	0xbec8f3ce	-0.39248508
107	0xbe705d2a	-0.2347304
108	0xbd816cf3	-0.063196085
109	0xbe5c4cdd	-0.21513696
110	0xbe9549d7	-0.29157898
111	0xbeb1c6a6	-0.3472187
112	0xbed8a418	-0.42312694
113	0x3d2c5732	0.042075343
114	0x3dcd619f	0.10028385
115	0xbdb66e2a	-0.08907731
116	0xbd57215d	-0.052522052
117	0xbe8a2a95	-0.26985613
118	0xbeb4a204	-0.35279858
119	0xbd02b690	-0.031912386
120	0xbec7670a	-0.389458
121	0xbd417e34	-0.047239497
122	0xbeb0394d	-0.34418717
123	0xbedd87dd	-0.43267718
124	0xbd5d3786	-0.05400803
125	0xbebad025	-0.36486927
126	0xbd9ca6bb	-0.07648989
127	0x3e78c9af	0.24295686
128	0xbe4d9e94	-0.20080024
129	0xbeb1c0f5	-0.34717527
130	0x3cf1535a	0.02945869
131	0xbe36ad62	-0.17839578
132	0x3ead2754	0.33819067
133	0xbe2eb8d7	-0.17062698
134	0xbecb3687	-0.3969004
135	0xbf0200a7	-0.50782245
136	0xbe95f0a8	-0.2928517
137	0xbe811f1d	-0.2521905
138	0xbdeb061e	-0.11475776
139	0xbd8d7798	-0.06907576
140	0xbe931913	-0.28730068
141	0xbe00d86d	-0.1258256
142	0x3d494f39	0.04914782
143	0xbe1dc93a	-0.15408793
144	0xbdf659ce	-0.12028848
145	0xbe0d2101	-0.13782121
146	0xbe79e0c8	-0.24402153
147	0xbe5b6b09	-0.2142755
148	0xbf247a59	-0.6424919
149	0xbe513f6f	-0.20434354
150	0x3cef1740	0.029185891
151	0xbe5af167	-0.2138115
152	0xbd9916cc	-0.07475051
153	0xbe58e033	-0.21179275
154	0xbe05fd30	-0.13084865
155	0xbeb4c046	-0.35302943
156	0xbeac856f	-0.33695552
157	0xbe5f9404	-0.21833807
158	0xbef3ca33	-0.47615203
159	0xbdeca789	-0.11555392
160	0xbe8d596a	-0.2760728
161	0x3e95216d	0.29127064
162	0xbe786489	-0.24257101
163	0xbe4584cc	-0.19288939
164	0xbde20597	-0.110362224
165	0x3e7b0e23	0.24517111
166	0xbe9c4fde	-0.30529684
167	0xbee48928	-0.44635892
168	0xbe997e9c	-0.29979408
169	0xbebdf2a5	-0.37099186
170	0xbeadd147	-0.33948728
171	0xbe5aa044	-0.21350199
172	0xbe82c841	-0.25543407
173	0xbee83718	-0.45354533
174	0xbe2e650e	-0.17030737
175	0xbea52fe0	-0.32263088
176	0xbf185cfb	-0.59516877
177	0xbf0e97e0	-0.5570049
178	0xbe3fd288	-0.18732655
179	0xbf0baef3	-0.54563826
180	0xbea071a9	-0.31336716
181	0xbebc8448	-0.36819673
182	0xbe99dd22	-0.30051523
183	0xbf0b1478	-0.5432811
184	0xbdbe1207	-0.09280782
185	0xbe04e767	-0.12978898
186	0xbeecf64c	-0.4628166
187	0xbe8e99d0	-0.27851725
188	0x3eaec3bd	0.3413371
189	0xbec6bb2b	-0.38814673
190	0xbe8404b0	-0.25784826
191	0xbedcbd85	-0.43113342
192	0xbe6276cb	-0.22115628
193	0x3e693c05	0.22776802
194	0xbe5a3c7a	-0.21312132
195	0xbe7cfca9	-0.24705757
196	0xbedea4bd	-0.4348506
197	0xbe1762e2	-0.14783815
198	0xbe8f06ca	-0.27934867
199	0xbeb3661d	-0.35038844
200	0xbebcb05c	-0.36853302
201	0xbe198d79	-0.14995374
202	0xbee09e3a	-0.43870717
203	0xbe94f7b6	-0.29095238
204	0xbe8d8d36	-0.27646798
205	0xbe97a7da	-0.29620248
206	0xbec73f0b	-0.38915285
207	0xbec01b25	-0.3752071
208	0xbf067a6d	-0.52530557
209	0x3e6340af	0.22192644
210	0xbe883971	-0.26606324
211	0x3d70a938	0.05875513
212	0xbe1badf2	-0.15203074
213	0xbdd6fdd0	-0.1049763
214	0xbe6d53f6	-0.2317656
215	0xbd50b6d3	-0.050955605
216	0xbf2bbdb9	-0.6708637
217	0xbe0291e8	-0.12750971
218	0xbe8d73f5	-0.2762753
219	0xbe454a39	-0.19266595
220	0xbe9f549e	-0.31119245
221	0xbe9d6890	-0.30743837
222	0xbdf881df	-0.12134146
223	0xbeb96b46	-0.36214656
224	0xbdd33251	-0.103123315
225	0xbeb1bcd6	-0.34714383
226	0xbe5a8820	-0.2134099
227	0xbe7a2b2f	-0.24430536
228	0xbe8ad1b8	-0.27113128
229	0xbeabdf90	-0.33569002
230	0xbd3f85d8	-0.046758503
231	0xbee392be	-0.44447893
232	0x3dcdc471	0.10047234
233	0xbe880f52	-0.26574188
234	0xbe3b5edc	-0.18297905
235	0x3d59e12d	0.05319326
236	0xbe4888ec	-0.19583482
237	0xbf032c20	-0.51239204
238	0xbe81d31d	-0.2535638
239	0xbea236b5	-0.31682363
240	0xbddc5b91	-0.107596524
241	0xbdea50e8	-0.11441213
242	0x3ccf9b82	0.025342707
243	0xbd95470b	-0.07288941
244	0xbe55d560	-0.20882177
245	0xbe8d0220	-0.27540684
246	0x3e5545b4	0.20827371
247	0xbf0d1c77	-0.5512156
248	0xbdb2bdad	-0.08727584
249	0xbea2a713	-0.31768093
250	0x3cc44012	0.023956332
251	0xbec5b49b	-0.38614354
252	0xbe97f328	-0.296777
253	0xbe81f7b2	-0.2538429
254	0xbd4fa510	-0.050694525
255	0xbf0cd0cb	-0.5500609

linear2.weight f4 [3, 256]
0	0xbd16fe5b	-0.036863666
1	0x3d278533	0.040898513
2	0x3da4be46	0.08044104
3	0xbe95cd87	-0.29258367
4	0xbdac1f5f	-0.08404421
5	0xbd26ac17	-0.04069146
6	0x3c61678f	0.0137576
7	0xbde3dfe7	-0.1112669
8	0xbd78f40d	-0.06077962
9	0xbd178f24	-0.037001744
10	0x3d9884c6	0.074471995
11	0x3d057539	0.032582495
12	0xbe0b3d23	-0.1359754
13	0xbe7aa376	-0.24476418
14	0x3ef25134	0.47327578
15	0xbe445ab4	-0.19175225
16	0x3e39ce7a	0.18145171
17	0xbd863741	-0.065535076
18	0x3d55e525	0.052220482
19	0xbe26b18f	-0.1627867
20	0x3cd9da93	0.026593482
21	0x3d1ae258	0.037813514
22	0x3c96c35d	0.018403703
23	0x3abbe416	0.0014334943
24	0xbcd46396	-0.025926393
25	0xbd2126f5	-0.039343793
26	0xbd804715	-0.06263558
27	0xbd20981e	-0.03920757
28	0x3c6ac639	0.0143294865
29	0x3de84d54	0.11342874
30	0x3dbcd9c2	0.092212215
31	0xbd4a1499	-0.04933605
32	0xbda8aeab	-0.0823644
33	0x3bcfa870	0.006337218
34	0xbe2f54a8	-0.17122138
35	0xbea59e58	-0.3234737
36	0xbabb7597	-0.0014302012
37	0x3d2a39da	0.041559078
38	0x3c942b9b	0.018087199
39	0x3d929c69	0.07158739
40	0xbdf62ba3	-0.12020042
41	0x3d20408c	0.039124057
42	0x3bb92e53	0.005651274
43	0xbe17aa64	-0.14811093
44	0xbc852aed	-0.01625582
45	0xbbca96a0	-0.0061825067
46	0x3d4174e8	0.04723063
47	0x3cda2fd8	0.026634142
48	0x3d6867f8	0.056739777
49	0x3caeef21	0.02135426
50	0xbc675607	-0.014119632
51	0xbe659234	-0.22419053
52	0xbd0de5bd	-0.034642924
53	0x3db7c5ba	0.0897326
54	0x3b54218e	0.0032368633
55	0xbddf5b37	-0.1090607
56	0x3d09c548	0.033635408
57	0x3e1fc065	0.15600736
58	0x3c21e37e	0.0098808985
59	0xbd0c5608	-0.034261733
60	0xbd928c65	-0.071556844
61	0x3b576341	0.0032865556
62	0xbe21ba3a	-0.15793696
63	0xbb24f3fe	-0.0025169845
64	0xbd623fff	-0.055236813
65	0x3c9131ed	0.017724002
66	0x3c3a668e	0.01137699
67	0xbd75f698	-0.060049623
68	0xbd0c3d5a	-0.034238197
69	0xbdca98e9	-0.098924465
70	0x3d4df9cb	0.05028705
71	0x3c942af4	0.018086888
72	0xbd91e992	-0.07124628
73	0xbdb33cb1	-0.0875181
74	0xbd64f979	-0.05590198
75	0x3da1f8ba	0.07908769
76	0xbda24707	-0.07923704
77	0xbea08b4b	-0.31356272
78	0xbe635192	-0.22199085
79	0x3c532843	0.012888017
80	0x3db74493	0.08948626
81	0xbd845298	-0.06461066
82	0xbd30472d	-0.04303663
83	0x3d4724e5	0.04861917
84	0x3cd305ae	0.025759544
85	0xbe3ea03a	-0.18615809
86	0xbc31a790	-0.010843173
87	0x3c79d784	0.015249137
88	0xbc2bbdc9	-0.01048226
89	0x3e036c3d	0.12834258
90	0x3e85093e	0.25983614
91	0x3de305c9	0.11085088
92	0xbd8ced0e	-0.06881152
93	0x3a04a946	0.0005060624
94	0x3d84d3e6	0.06485729
95	0xbd061bbd	-0.032741297
96	0x3db83980	0.08995342
97	0xbe0dec82	-0.13859752
98	0xbdcda60b	-0.10041436
99	0x3e473df2	0.19457224
100	0x3d0d8e66	0.03455963
101	0xbb17304f	-0.0023069566
102	0x3d0981f5	0.033571202
103	0xbcc6fec5	-0.024291405
104	0x3d311643	0.04323412
105	0x3e33e90b	0.17569368
106	0x3cd8b3d0	0.026452929
107	0x3d4ecec8	0.05049017
108	0xbe4591db	-0.1929392
109	0x3d3c0b30	0.045909107
110	0xbdce1ca5	-0.10064057
111	0x3c2834e1	0.010266514
112	0xbe54cb11	-0.20780589
113	0x3bd2d3f4	0.006433958
114	0x3d63f86e	0.055656843
115	0xbcdc6d08	-0.026907459
116	0xbdc2df06	-0.095151946
117	0xbd85f500	-0.06540871
118	0xbdea1c07	-0.11431127
119	0x3ef5752d	0.4794096
120	0x3cff4387	0.03116013
121	0x3c13ce4d	0.009021354
122	0x3e42b156	0.19012961
123	0xbbc17249	-0.0059035164
124	0x3af0092f	0.0018313284
125	0x3e1a61f5	0.1507643
126	0xbd93b7e1	-0.072128065
127	0x3e34a869	0.17642368
128	0xbcaf8b61	-0.021428766
129	0x3e5574f2	0.20845392
130	0xbd297d0a	-0.041379012
131	0x3e638b8e	0.22221205
132	0xbd799308	-0.060931236
133	0xbdbf18c3	-0.09330895
134	0x3dbdb54c	0.09263095
135	0xbcb9afff	-0.02266693
136	0x3eb3a0fe	0.35083765
137	0x3dacc05b	0.084351264
138	0x3e1e503d	0.15460296
139	0xbddda715	-0.10822884
140	0xbd08dc44	-0.033413187
141	0xbefabec9	-0.48973683
142	0x3dcbd14f	0.09952032
143	0xbcad155c	-0.021128349
144	0x3d56d162	0.052445777
145	0xbe3ce7d5	-0.18447812
146	0xbe4e34ad	-0.20137282
147	0x3e291496	0.16511759
148	0xbe1034c4	-0.14082628
149	0xbc527b29	-0.0128467465
150	0x3f02c335	0.5107911
151	0x3e1c56de	0.15267512
152	0xbd89f470	-0.06736076
153	0xbb931079	-0.0044880477
154	0xbdd5d9d9	-0.10441942
155	0x3d171765	0.036887545
156	0xbdd01204	-0.10159686
157	0x3c5226d2	0.012826638
158	0xbd5be2e0	-0.05368316
159	0xbda53b72	-0.08067979
160	0xbd404711	-0.046942774
161	0x3e09eb6b	0.13468711
162	0x38c031d9	9.164558e-05
163	0xbe96ecd4	-0.2947756
164	0x3d8ee37e	0.069769844
165	0xbd4b1b50	-0.049586594
166	0xbd924f8c	-0.071440786
167	0xbdf01ec1	-0.11724616
168	0xbd2d6b54	-0.042338684
169	0xbd26adab	-0.040692966
170	0xbdfc8456	-0.123299286
171	0x3e302a74	0.17203695
172	0xbc1b82fd	-0.009491679
173	0xbdbb4fab	-0.09146055
174	0xbd9a3763	-0.075300954
175	0xbdeb93b8	-0.115027845
176	0xbe015860	-0.12631369
177	0xbdaa5bdd	-0.08318303
178	0x3e00608b	0.12536828
179	0x3e575cff	0.21031569
180	0xbe34a1fa	-0.17639914
181	0x3e56ea0f	0.20987724
182	0x3d18a234	0.037264064
183	0x3cc34040	0.023834348
184	0x3db32ddb	0.087489806
185	0xbceb7ace	-0.028745081
186	0xbd6701fc	-0.056398377
187	0xbe81ed4f	-0.25376365
188	0xbed5ec9d	-0.41782084
189	0x3db8543e	0.09000443
190	0xbd14ac5c	-0.036297187
191	0xbd5869d1	-0.05283529
192	0xbc529241	-0.012852252
193	0x3db07f9e	0.08618091
194	0xbd35abd3	-0.044353317
195	0x3dfd3006	0.12362675
196	0xbd028208	-0.03186229
197	0x3c4ca48f	0.012490406
198	0xbd930d4a	-0.07180269
199	0x3dedada7	0.11605387
200	0xbd87b82e	-0.06626926
201	0xbd0a899a	-0.033822633
202	0xbd03941f	-0.03212368
203	0xbd87010f	-0.06591999
204	0xbe2204cf	-0.15822147
205	0x3d826cb6	0.06368391
206	0xbdb935bd	-0.09043453
207	0xbbd66d5a	-0.0065437974
208	0xbaaf5bbe	-0.0013378782
209	0x3cc9c52f	0.024630157
210	0x3d386138	0.04501459
211	0x3e45b037	0.19305502
212	0x3c8eda4f	0.017438082
213	0x3d0e9bc0	0.034816504
214	0xbce519df	-0.027966438
215	0xbf14d177	-0.5813212
216	0xbe0dd58f	-0.13850997
217	0x3df27dd6	0.118404076
218	0xbe54e2fb	-0.20789711
219	0x3d1e7ae8	0.03869143
220	0x3dbe9e2d	0.093075134
221	0xbe9928c1	-0.29913905
222	0x3d00238b	0.031283896
223	0x3d442a35	0.047891814
224	0xbe301f25	-0.1719938
225	0xbd854a0b	-0.06508263
226	0xbe29c32a	-0.16578355
227	0x3d1769bf	0.03696608
228	0xbd2f1998	-0.042749017
229	0xbd8d3b21	-0.068960436
230	0xbd8f5ac7	-0.06999736
231	0xbd6083e8	-0.054813296
232	0x3eb82924	0.35968888
233	0xbda7dd4f	-0.08196508
234	0x3b019ad7	0.001977613
235	0xbe2a05d0	-0.1660378
236	0xbee30b60	-0.44344616
237	0xbe06d462	-0.13166955
238	0x3ddab4cb	0.10679015
239	0xbe18f40f	-0.14936851
240	0xbf254ff6	-0.64575136
241	0x3e899ee3	0.26879033
242	0x3df42eef	0.119230144
243	0xbdfd2c59	-0.12361974
244	0xbe0a4dd8	-0.13506258
245	0xbccce333	-0.02501068
246	0x3ebb7df5	0.36619535
247	0x3cddd8d2	0.027080927
248	0x3cf4d7ae	0.029888
249	0x3d31f9d4	0.043451145
250	0xbc7774a9	-0.015103498
251	0xbe284547	-0.16432677
252	0xbcb17394	-0.021661557
253	0xbc9ecdc4	-0.019385226
254	0xbdcc8a30	-0.09987295
255	0x3c34d768	0.011037685

linear2.bias f4 [3]
0	0xbeb4ebb4	-0.35336077
1	0xbf168c9c	-0.588083
2	0xbef5e035	-0.4802262
