model/model.pth (torch, 16799 bytes, 4 tensors)

linear1.weight f4 [256, 11]
0.13306129 0.039849907 -0.2790753 -0.024924994 -0.1149088 0.18163325 -0.19439876 -0.114429094
-0.208384 0.01617438 -0.06797822 -0.31076267 0.0046861386 0.8409179 0.17817691 -0.22906859
-0.0044733346 -0.47464675 -0.19975619 -0.4969694 -0.9180889 -0.2627126 0.08032805 -0.22658993
0.07063031 0.012643295 -0.05279153 -0.16656345 -0.00074104377 0.003149735 -0.009373298 -0.026477095
-0.24634321 0.37647006 0.3157463 0.37810138 -0.7343505 -0.46239075 -0.31835568 -0.2658819
-0.42323983 0.09085917 -0.97523475 -0.29463637 -0.25182915 -0.0015119314 0.17050272 -0.029238002
-0.15146077 -0.31451687 -0.27672577 0.109905034 -0.19755764 0.19359615 0.07301346 -0.27870476
0.050682217 0.25898844 0.105656676 -0.059307173 -0.08803889 0.00010636449 -0.2498128 -0.14801097
0.11474488 -0.030449688 0.52648044 -0.31427002 -0.10475731 -0.19054079 -0.18338265 -0.12948248
-0.118196875 -0.6281535 0.009862456 -0.55916077 -0.35836962 -0.04546264 -0.23324633 -0.0010270649
-0.08847484 -0.07488321 -0.18376744 -0.24279404 -0.4264121 -0.26638183 -0.1468273 -0.21157736
0.0123744905 -0.20843369 0.048966855 0.124919906 -0.2028947 -0.26193 -0.07390961 -0.52951604
-0.29373473 -0.2862521 -0.25830436 0.57082564 0.8125556 -0.12754077 -0.6035387 -0.48029685
0.16262245 -0.5585782 -0.56930846 -0.38968703 -0.45752493 -0.38272724 -0.13810872 -0.38191658
-0.12343727 0.095129326 -0.005309859 0.10865903 -0.36945397 -0.037198793 -0.031655382 -0.11674938
-0.53353494 -0.7497235 0.56955785 1.1205288 -0.6076192 -0.40472463 -0.23213251 -0.8129047
-1.0881937 -0.10981161 -0.54373556 -0.55735224 0.0076836348 0.16261886 0.20504886 -0.074899636
-0.13542299 -0.10364574 -0.013091399 -0.091405846 -0.30103746 -0.109828755 -0.060661975 -0.15968195
0.13117138 0.20891106 -0.06770479 -0.26376352 -0.3164444 -0.03192886 -0.25763065 -0.36103114
-0.38014704 -0.22989002 -0.2196604 -0.18924655 0.062564164 -0.17968911 -0.03557766 -0.58084524
-0.12839317 -0.15697686 -0.21611804 -0.093285434 -0.19560018 0.003376782 -0.08300385 0.003538027
-0.069816925 -0.37909016 -0.2881412 -0.26529494 -0.19717675 0.07329102 -0.42809084 -0.3184022
-0.36851397 1.155656 0.024934487 -0.7499643 -0.15392281 -0.51403624 0.43778017 -0.04788842
-0.16513874 -0.39641172 -0.0073841778 -0.16065113 0.06313816 -0.13903582 0.057667162 -0.0026590824
-0.011939586 -0.08012076 -0.23776156 -0.10213013 -0.041554686 -0.018380182 -0.2452982 -0.1663895
-0.20500073 -0.026092518 -0.08093676 -0.022181036 -0.030937422 -0.11859521 -0.16597937 -0.41528314
-0.2677339 1.2502277 -0.22363979 -0.81686306 0.30736274 -0.36300087 -0.8791543 -0.45114663
-0.30858552 -0.29387736 -0.26447242 -0.3424601 -0.075984724 -0.27930468 0.4199599 -0.045486074
-0.4159542 -0.19295788 -0.025190627 -0.3896563 -0.0023412323 -0.459477 -0.3973412 0.046276625
-0.30255547 1.538426 -0.7799089 -0.022268778 -0.34015244 0.21283604 -0.21294191 0.028819883
-0.523718 -0.40211925 0.1694386 -0.081428945 -0.06214348 0.15938613 -0.0627288 -0.037692875
-0.1628484 -0.29931453 -0.28361133 -0.16882604 -0.21684678 -0.23913346 -0.47641954 0.16555989
00000000: 3841 083e a839 233d f5e2 8ebe 802f ccbc
00000010: 4e55 ebbd 11fe 393e 7810 47be cd59 eabd
00000020: 9e62 55be 2280 843c 2a38 8bbd 491c 9fbe
00000030: 2e8e 993b 6546 573f 0274 363e f590 6abe
00000040: 0d95 92bb e604 f3be e38c 4cbe c672 febe
00000050: e007 6bbf 4482 86be 0883 a43d 3107 68be
00000060: a0a6 903d d325 4f3c ee3b 58bd 9c8f 2abe
00000070: 9b42 42ba c96b 4e3b 7692 19bc 7ee6 d8bc
00000080: 6541 7cbe afc0 c03e 80a9 a13e 8196 c13e
00000090: 65fe 3bbf 7bbe ecbe 84ff a2be ac21 88be
000000a0: e4b2 d8be 5f14 ba3d fca8 79bf 94da 96be
000000b0: c0ef 80be 002c c6ba 4498 2e3e 8984 efbc
000000c0: 8818 1bbe 5b08 a1be 00af 8dbe e415 e13d
000000d0: 8d4c 4abe 123e 463e 1588 953d 64b2 8ebe
000000e0: 2898 4f3d 229a 843e 8762 d83d 14ec 72bd
000000f0: bc4d b4bd 0010 df38 edce 7fbe 3090 17be
00000100: 5dff ea3d a071 f9bc 6cc7 063f 00e8 a0be
00000110: 008b d6bd 201d 43be a9c8 3bbe 0e97 04be
00000120: 3411 f2bd abce 20bf 2396 213c 2925 0fbf
00000130: 397c b7be 0837 3abd 20d8 6ebe 949e 86ba
00000140: 4c32 b5bd 5e5c 99bd 882d 3cbe 009f 78be
00000150: b052 dabe 3363 88be e559 16be bca7 58be
00000160: 60be 4a3c a46f 55be 7891 483d 02d6 ff3d
00000170: a1c3 4fbe b01b 86be ec5d 97bd 5d8e 07bf
00000180: 6664 96be a38f 92be 7840 84be a121 123f
00000190: a503 503f 0c9a 02be 8381 1abf 78e9 f5be
000001a0: 8086 263e fbfe 0ebf 33be 11bf 0f85 c7be
000001b0: b540 eabe d3f4 c3be 5f6c 0dbe 928a c3be
000001c0: aecc fcbd 2ad3 c23d 53fe adbb a088 de3d
000001d0: 1229 bdbe c35d 18bd 13a9 01bd 4d1a efbd
000001e0: bf95 08bf e1ed 3fbf 8bce 113f 7d6d 8f3f
000001f0: ef8c 1bbf 1138 cfbe 25b4 6dbe 861a 50bf
00000200: ee49 8bbf e9e4 e0bd 4132 0bbf a3ae 0ebf
00000210: 00c7 fb3b 8f85 263e 54f8 513e fb64 99bd
00000220: 53ac 0abe 3844 d4bd 4f7d 56bc fd32 bbbd
00000230: 9521 9abe e6ed e0bd b178 78bd aa83 23be
00000240: ca51 063e c8ec 553e cfa8 8abd 030c 87be
00000250: 0005 a2be d6c7 02bd 2ae8 83be 13d9 b8be
00000260: a2a2 c2be 4a68 6bbe a8ee 60be d9c9 41be
00000270: a421 803d 6c00 38be e1b9 11bd 46b2 14bf
00000280: 8079 03be 8bbe 20be 0c4e 5dbe 6f0c bfbd
00000290: 6a4b 48be 004d 5d3b ecfd a9bd 3ede 673b
000002a0: 2dfc 8ebd 1b18 c2be 3e87 93be bdd4 87be
000002b0: b4e8 49be 9a19 963d b92e dbbe 9d05 a3be
000002c0: ddad bcbe 89ec 933f 6943 cc3c a9fd 3fbf
000002d0: f19d 1dbe e197 03bf b924 e03e a626 44bd
000002e0: 211a 29be 7af6 cabe f9f6 f1bb bb81 24be
000002f0: 944e 813d 685f 0ebe 6734 6c3d 0044 2ebb
00000300: 419e 43bc 5a16 a4bd c477 73be 9a29 d1bd
00000310: 3f35 2abd 0992 96bc 742f 7bbe 0262 2abe
00000320: b6eb 51be fabf d5bc 2cc2 a5bd 01b5 b5bc
00000330: 7a70 fdbc 0ce2 f2bd 7ff6 29be fe9f d4be
00000340: 6b14 89be 7607 a03f d401 65be f01d 51bf
00000350: a65e 9d3e 40db b9be 4210 61bf b1fc e6be
00000360: ecfe 9dbe 1877 96be ee68 87be ee56 afbe
00000370: e19d 9bbd 0601 8fbe fc04 d73e 9b4f 3abd
00000380: f3f7 d4be c096 45be 935c cebc 0881 c7be
00000390: 5c6f 19bb 9240 ebbe 4e70 cbbe 8f8c 3d3d
000003a0: 8de8 9abe 25eb c43f 1ca8 47bf 036d b6bc
000003b0: 7628 aebe b1f1 593e 720d 5abe ad17 ec3c
000003c0: 6212 06bf 93e2 cdbe 5081 2d3e 38c4 a6bd
000003d0: 298a 7ebd 1e36 233e f577 80bd d863 1abd
000003e0: bbc1 26be c13f 99be 8135 91be bce0 2cbe
000003f0: 150d 5ebe 67df 74be 43ed f3be 8888 293e

linear1.bias f4 [256]
-0.3150522 -0.6684735 -0.24584746 -0.64885324 -0.4583321 -0.3994935 -0.59787697 -0.2820084
-0.17988841 -0.2554476 -0.087889925 -0.1298949 -0.3640287 -0.36377418 0.07526221 -0.048230797
-0.53350246 -0.2850284 -0.20266874 -0.27009594 -0.19312578 -0.24772279 -0.34270605 -0.365876
-0.33850425 -0.12914619 -0.012945371 -0.3311057 -0.48221478 -0.37479743 -0.40340108 0.028463721
-0.38621542 -0.42844203 -0.79469067 -0.6040845 -0.239064 -0.21660957 -0.23693962 -0.072996
-0.13814409 -0.42238685 -0.41879627 -0.4371658 -0.46401757 -0.21119937 -0.58489585 -0.3376822
-0.4698851 -0.09695824 -0.18203232 -0.7061272 -0.43896332 -0.1443125 -0.38517925 -0.40940922
-0.12570673 -0.27268642 -0.13132341 -0.36120358 -0.2346254 -0.07940363 -0.21362011 -0.46760327
-0.014190021 -0.53541523 -0.42319807 -0.43967506 -0.57041734 -0.5079787 -0.061733615 -1.0305381
-0.26512608 -0.3775326 -0.325041 -0.31297615 -0.29547307 -0.091280065 -0.39027137 -0.34236705
-0.3767276 -0.45131528 -0.56424224 -0.36176214 -0.7198862 -0.042905927 -0.10942045 -0.61414635
-0.34731102 -0.433868 -0.48241243 -0.54436255 -0.34932652 -0.16666941 -0.24289292 -0.31616777
-0.47218224 -0.5776378 -0.46432015 -0.15727456 -0.35501778 -0.17061484 -0.21385992 -0.19038913
-0.21319005 -0.24979983 -0.23171665 -0.31025073 -0.15399268 -0.26702586 -0.4865891 -0.3561651
-0.13524215 -0.22818543 -0.29629776 -0.18930276 -0.35648456 -0.22761405 0.105631664 -0.19933857
-0.3526066 -0.16594842 -0.68571144 -0.08762632 -0.2984046 -0.08974438 -0.45443028 -0.14616291
-0.06443062 -0.47497678 -0.025629869 0.23556697 -0.29091555 -0.35894156 -0.760445 -0.43787348
-0.26917502 -0.5312614 -0.10547961 -0.43698373 -0.45967552 -0.59903425 -0.49766496 0.35708588
-0.43837836 -0.5119026 -0.4732661 -0.23763625 -0.65210766 -0.19051409 -0.3715842 -0.4237746
-0.44144952 -0.24246824 -0.495537 -0.53293955 -0.11920244 -0.3643634 -0.19695161 -0.23679622
0.038757954 -0.07092735 -0.42808542 -0.9634855 -0.6460224 -0.45650768 -0.3389264 -0.24253711
-0.61603236 -0.5897291 -0.229863 0.009679043 -0.02198568 -0.121999 -0.29075766 -0.25886232
-0.37417912 -0.41893184 -0.47479978 -0.007410811 -0.08725177 -0.30500087 -0.5169531 -0.2568121
-0.34901124 -0.4459926 -0.5613122 -0.051454395 -0.29199553 -0.2837936 -0.30378696 -0.3282882
-0.42602164 -0.25781447 -0.16370517 0.06105444 -0.25837433 -0.22449468 -0.37189552 -0.47725415
-0.50330323 -0.44720092 -0.22978583 -0.52120155 -0.3066476 -0.83051264 -0.09402132 -0.2311016
-0.45434487 -0.4461517 -0.15438904 -0.3680529 -0.42470017 -0.40311497 -0.16187 -0.5715538
-0.21319513 -0.2778498 -0.2655523 -0.33408567 -0.4371843 -0.5589096 -0.46370444 -0.33493087
-0.39414874 -0.22426434 -0.3738222 0.056714837 -0.14428242 -0.17084445 -0.19448756 -0.121635005
-0.14496538 -0.3684327 -0.6895548 -0.20024617 -0.34835398 -0.2369738 -0.33470225 -0.13344707
-0.17531155 -0.046559747 -0.09521819 -0.18635479 0.22283417 -0.4413028 -0.1718102 -0.6130973
0.032902934 -0.3051169 -0.22889519 0.018154314 -0.38720632 -0.09770518 -0.4659288 -0.3119808
00000000: 864e a1be 1421 2bbf 70bf 7bbe 3f1b 26bf
00000010: 81aa eabe 698a ccbe 770e 19bf 6863 90be
00000020: ab34 38be 07ca 82be a2ff b3bd 2b03 05be
00000030: f861 babe 9c40 babe 1323 9a3d a88d 45bd
00000040: 9e93 08bf 3eef 91be 6588 4fbe 044a 8abe
00000050: c4c2 45be 0bab 7dbe 2b77 afbe 1954 bbbe
00000060: 6e50 adbe e63e 04be d218 54bc b086 a9be
00000070: dbe4 f6be 73e5 bfbe 968a cebe c02c e93c
00000080: 07be c5be c15c dbbe d970 4bbf 48a5 1abf
00000090: 31cd 74be e6ce 5dbe 4da0 72be ed7e 95bd
000000a0: a575 0dbe 1743 d8be 776c d6be 32d4 dfbe
000000b0: b693 edbe a644 58be bcbb 15bf aee4 acbe
000000c0: c894 f0be 0b92 c6bd ae66 3abe c1c4 34bf
000000d0: cdbf e0be a8c6 13be 3736 c5be 169e d1be
000000e0: 44b9 00be 8e9d 8bbe a579 06be adef b8be
000000f0: a441 70be 5f9e a2bd 3bbf 5abe b269 efbe
00000100: 437d 68bc f910 09bf 6bad d8be 171d e1be
00000110: df06 12bf e40a 02bf 63dc 7cbd ace8 83bf
00000120: 9bbe 87be f44b c1be c66b a6be 693e a0be
00000130: 3f48 97be 0bf1 babd a6d1 c7be bc4a afbe
00000140: 71e2 c0be cc12 e7be 2e72 10bf e338 b9be
00000150: 764a 38bf 20be 2fbd d417 e0bd b238 1dbf
00000160: c0d2 b1be f223 debe c3fe f6be 585b 0bbf
00000170: edda b2be 63ab 2abe ecb8 78be bee0 a1be
00000180: dfc1 f1be 12e0 13bf 5fbb edbe 950c 21be
00000190: e4c4 b5be a8b5 2ebe 18fe 5abe 5ef5 42be
000001a0: 7e4e 5abe 87cb 7fbe 2147 6dbe 2fd9 9ebe
000001b0: 42b0 1dbe 9db7 88be 3522 f9be 465b b6be
000001c0: eb7c 0abe 71a9 69be 57b4 97be 95d8 41be
000001d0: 2585 b6be a813 69be 6a55 d83d 691f 4cbe
000001e0: da88 b4be 62ee 29be c98a 2fbf 6e75 b3bd
000001f0: 7dc8 98be e7cb b7bd 16ab e8be bbab 15be
00000200: 33f4 83bd 2830 f3be bbf5 d1bc 7838 713e
00000210: e2f2 94be 30c7 b7be 86ac 42bf f430 e0be
00000220: 4fd1 89be bf00 08bf b205 d8bd 55bc dfbe
00000230: 975a ebbe 4f5a 19bf f1cd febe f6d3 b63e
00000240: 2173 e0be 0c0c 03bf ef4f f2be eb56 73be
00000250: 87f0 26bf 2016 43be 4940 bebe fcf8 d8be
00000260: ac05 e2be 9849 78be 07b7 fdbe ba6e 08bf
00000270: 6920 f4bd d78d babe afad 49be b57a 72be
00000280: a9c0 1e3d 5c42 91bd 032e dbbe fca6 76bf
00000290: b961 25bf 60bb e9be c387 adbe a65b 78be
000002a0: 4cb4 1dbf 7cf8 16bf 3561 6bbe d994 1e3c
000002b0: 501b b4bc 9dda f9bd 30de 94be 9a89 84be
000002c0: 6894 bfbe 3c7e d6be f518 f3be 63d6 f2bb
000002d0: 0eb1 b2bd 1329 9cbe 0a57 04bf e07c 83be
000002e0: 9ab1 b2be 2459 e4be 28b2 0fbf d8c1 52bd
000002f0: 7080 95be 654d 91be f789 9bbe 6415 a8be
00000300: 821f dabe 4200 84be 54a2 27be 3814 7a3d
00000310: a449 84be efe1 65be 1769 bebe a85a f4be
00000320: 7bd8 00bf 85f7 e4be fa4c 6bbe 776d 05bf
00000330: ea00 9dbe 7a9c 54bf 408e c0bd e6a5 6cbe
00000340: e49f e8be ff6d e4be 2918 1ebe 6e71 bcbe
00000350: 4d72 d9be 1665 cebe 40c1 25be 5a51 12bf
00000360: d34f 5abe 5442 8ebe 79f6 87be 470d abbe
00000370: 9fd6 dfbe b314 0fbf ab6a edbe 0f7c abbe
00000380: ddcd c9be 8da5 65be a065 bfbe d14d 683d
00000390: c5be 13be d9f1 2ebe bf27 47be c61b f9bd
000003a0: ce71 14be 36a3 bcbe aa86 30bf 550d 4dbe
000003b0: 745b b2be 43a9 72be 185e abbe 59a6 08be
000003c0: df84 33be 6fb5 3ebd c101 c3bd cad3 3ebe
000003d0: a42e 643e 71f2 e1be 03ef 2fbe f2f3 1cbf
000003e0: 3ac5 063d 4838 9cbe 8063 6abe 5bb8 943c
000003f0: e83f c6be a719 c8bd 388e eebe f3bb 9fbe

linear2.weight f4 [3, 256]
0.0037591383 0.09427657 -0.06639382 -0.02061867 -0.05906477 -0.031604975 -0.22558959 -0.1619327
0.14816277 -0.2014281 -0.15866993 0.0006302154 -0.011251299 -0.06507323 0.004624898 0.3581167
-0.24455023 -0.02454116 -0.066867314 -0.4144451 -0.013933952 -0.19519208 -0.14804313 -0.028220745
-0.53625745 -1.2839019 -0.1014323 -0.00037730671 0.3108447 -0.1351397 0.055977393 -0.33741027
0.11262902 -0.7363643 -0.34910125 -0.041785993 -0.44724107 -0.012031562 -0.0036322968 -0.029640874
0.099819794 -0.11738013 -0.11129629 -0.20905524 -0.28615916 0.0014088062 -0.7632484 -0.390603
-0.50133616 0.04876028 0.03674696 0.03570567 0.09455756 0.03022118 -0.075164475 0.33779564
-0.020153303 0.038600616 0.028124794 -0.009845087 -0.073590465 -0.10975851 -0.06279327 0.12721889
-0.06357491 0.065822445 -0.29201353 -0.16300385 -0.12680334 -0.17308931 -0.05866315 0.19850427
-0.03707098 -0.095884584 0.17498523 -0.07154159 -0.050655942 0.018159613 -0.21460226 -0.055787686
0.029250994 0.01758227 0.031138763 -0.43144464 0.07281329 -0.0930971 -0.075024284 0.24959986
-0.14086056 -0.026171813 -0.06293722 -0.2645707 0.04003619 -0.044788934 0.0026828046 -0.016153686
-0.16865611 0.088692605 0.0056168744 -0.046360195 -0.23791702 0.027676573 -0.019940656 0.045954123
0.016746715 -0.06235584 -0.065919384 -0.024373878 0.031686235 -0.7377054 -0.10527646 -0.04784561
-0.036054548 0.015767094 -0.08090143 -0.04297054 0.09017758 -0.036574967 -0.2851127 -0.011152433
-0.31804293 0.05025315 -0.44639358 -0.035254553 -0.19260056 -0.028941981 -0.27214196 0.12048821
-0.07755536 -0.045653563 -0.36313605 0.41078103 -0.0015858994 -0.018550092 -0.48151112 0.030380584
-0.042586606 0.04800428 -0.0115332045 -0.002100593 0.11672904 0.074046664 -0.08240944 0.010450301
-0.038740955 -0.14296785 0.29916993 0.36487824 -0.091335855 0.009837112 -0.13413559 0.0062329727
0.036471855 -0.032418925 0.18252105 -0.02707359 -0.0028340565 -0.0034875532 0.0010391043 0.0022943285
-0.36084816 -0.013950856 -0.009683855 0.16093674 -0.020038256 -0.034298345 0.023787968 -0.08742956
-0.061463565 -0.04542604 0.11928927 -0.024184102 -0.0467225 -0.17138976 0.49055508 -0.036270443
0.017643388 -0.003199823 -0.44793954 -0.00017748025 -0.041764896 -1.4056398 -0.1493756 -0.03517828
-0.029039858 0.12770848 0.08348725 -0.030173775 -0.01826143 0.035946734 0.058996074 -0.10474894
-0.03735484 0.019363744 -0.0110917315 -0.0044510807 -0.06466233 -0.10870199 -0.024341932 -0.047795232
-0.047569633 -0.012265395 0.03433036 -0.031068716 -0.06328502 0.7069522 0.04810745 -0.08030995
0.027511366 -0.12011251 -0.455154 -0.32728368 0.033201408 -0.25901824 0.09508384 -0.058999762
-0.12111473 0.1740777 -0.15498891 -0.028083203 -0.037798338 0.05711672 -0.39598683 0.0390849
-0.17447342 0.021396115 -0.09178566 -0.09791398 -0.029199798 -0.25767392 0.22464103 -0.021190263
-0.05548733 0.04884527 0.37079105 -0.122166544 -0.04347429 -0.011178292 0.03247088 -0.042586245
-0.10047318 -0.021813562 -0.033396266 0.11862986 -0.046384107 -0.024870384 0.006475223 0.20906864
0.23369418 -0.0657625 0.0041606124 -0.15307014 0.14931278 0.06853953 -0.02595213 -0.047240376
00000000: e05b 763b 1314 c13d 7cf9 87bd 7ce8 a8bc
00000010: e6ed 71bd 3874 01bd f500 67be b0d1 25be
00000020: fbb7 173e 2b43 4ebe 5f7a 22be 0a35 253a
00000030: 5e57 38bc 1d45 85bd 758c 973b 125b b73e
00000040: 606b 7abe 8b0a c9bc bbf1 88bd 2632 d4be
00000050: 3b4b 64bc 6fe0 47be 9e98 17be 312f e7bc
00000060: 2b48 09bf e656 a4bf bdbb cfbd 40d1 c5b9
00000070: 0927 9f3e 1062 0abe 8d48 653d 0ac1 acbe
00000080: 0baa e63d 5f82 3cbf 66bd b2be ca27 2bbd
00000090: c8fc e4be 0720 45bc d40b 6ebb 6bd1 f2bc
000000a0: 526e cc3d fe64 f0bd 4fef e3bd 9412 56be
000000b0: 7483 92be b1a7 b83a 3f64 43bf 1efd c7be
000000c0: 9157 00bf dcb8 473d fb83 163d 1c40 123d
000000d0: 65a7 c13d 6892 f73c d5ef 99bd 8df3 ac3e
000000e0: 8a18 a5bc ae1b 1e3d f865 e63c 4a4d 21bc
000000f0: 99b6 96bd 12c9 e0bd c299 80bd ab45 023e
00000100: 9033 82bd ebcd 863d cc82 95be 7bea 26be
00000110: bcd8 01be 533e 31be c548 70bd b444 4b3e
00000120: bdd7 17bd 235f c4bd 542f 333e 6684 92bd
00000130: 9b7c 4fbd 78c3 943c b2c0 5bbe a181 64bd
00000140: c89f ef3c b108 903c b816 ff3c 50e6 dcbe
00000150: 221f 953d b1a9 bebd 55a6 99bd 1b97 7f3e
00000160: c03d 10be 4566 d6bc 3be5 80bd d075 87be
00000170: fdfc 233d 9a74 37bd fed1 2f3b bc54 84bc
00000180: 30b4 2cbe 78a4 b53d c20d b83b 30e4 3dbd
00000190: 85a0 73be fbb9 e23c 965a a3bc 643a 3c3d
000001a0: 6830 893c d668 7fbd be00 87bd baab c7bc
000001b0: 6dc9 013d 43da 3cbf 2f9b d7bd c2f9 43bd
000001c0: efad 13bd fe29 813c a6af a5bd e001 30bd
000001d0: 06af b83d a2cf 15bd 4bfa 91be b2b8 36bc
000001e0: 86d6 a2be 3fd6 4d3d b38d e4be 1467 10bd
000001f0: 1539 45be bc17 edbc 3156 8bbe 86c2 f63d
00000200: 58d5 9ebd 3bff 3abd f8ec b9be e451 d23e
00000210: f4dd cfba 5df6 97bc a088 f6be b4e0 f83c
00000220: 4b6f 2ebd 23a0 443d c4f5 3cbc 1aaa 09bb
00000230: a30f ef3d c7a5 973d 48c6 a8bd bd37 2b3c
00000240: d6ae 1ebd 2a66 12be cd2c 993e 52d1 ba3e
00000250: 4b0e bbbd d72b 213c d75a 09be f73d cc3b
00000260: 8363 153d b5c9 04bd cce6 3a3e 6fc9 ddbc
00000270: 94bb 39bb 6f8f 64bb 8e32 883a 725c 163b
00000280: 17c1 b8be 2292 64bc 08a9 1ebc 9acc 243e
00000290: 4527 a4bc 6c7c 0cbd fcde c23c 450e b3bd
000002a0: 38c1 7bbd a810 3abd ef4d f43d bd1d c6bc
000002b0: 1860 3fbd cc80 2fbe 092a fb3e 5190 14bd
000002c0: de88 903c 1fb4 51bb 5558 e5be fe19 3ab9
000002d0: ab11 2bbd 01ec b3bf ebf5 18be 1a17 10bd
000002e0: ffe4 edbc 03c6 023e 5dfb aa3d fe2e f7bc
000002f0: ff98 95bc e23c 133d dea5 713d 9d86 d6bd
00000300: 6401 19bd b7a0 9e3c 18ba 35bc 5fda 91bb
00000310: af6d 84bd 269f debd bb68 c7bc efc4 43bd
00000320: 60d8 42bd ccf4 48bc fe9d 0c3d d283 febc
00000330: 949b 81bd d2fa 343f 510c 453d 8b79 a4bd
00000340: 845f e13c 8cfd f5bd f209 e9be ba91 a7be
00000350: 33fe 073d 0a9e 84be 51bb c23d bca9 71bd
00000360: 000b f8bd 6d41 323e 6ab5 1ebe bf0e e6bc
00000370: 6ed2 1abd 39f3 693d c9be cabe 7d17 203d
00000380: 29a9 32be e846 af3c 1ffa bbbd 2087 c8bd
00000390: 6a34 efbc d6ed 83be 4c08 663e 3497 adbc
000003a0: af46 63bd fa11 483d 53d8 bd3e 7432 fabd
000003b0: 1912 32bd 2825 37bc 2f00 053d ea6e 2ebd
000003c0: e2c4 cdbd 5bb2 b2bc 86ca 08bd 36f4 f23d
000003d0: 43fd 3dbd fabc cbbc 1c2e d43b 1716 563e
000003e0: 874d 6f3e 7dae 86bd bf55 883b 6bbe 1cbe
000003f0: 73e5 183e 745e 8c3d 9099 d4bc 207f 41bd

linear2.bias f4 [3]
-0.48626605 -0.5353532 -0.68295795
00000000: ddf7 f8be e80c 09bf 55d6 2ebf
