model/model.pth (torch, 16799 bytes, 4 tensors)

linear1.weight f4 [256, 11]
0.12913592 0.29984108 0.42250103 0.13963674 -0.19951853 0.09218337 -0.111409344 0.24941394
0.12660626 0.31697482 -0.1188208 -0.119847536 -0.3031147 -0.006990702 -0.040665362 0.1298356
-0.02807324 0.25788525 -0.2253575 0.33442196 -0.30593315 -0.017094992 0.2964828 0.29110956
-0.019158117 -0.052323233 -0.08868932 -0.13451612 -0.31192416 0.24098188 0.01001109 -0.024302095
0.21689644 -0.10897413 -0.065932825 0.24247897 -0.01266648 -0.22311378 0.025168866 -0.047484107
0.34129724 0.03366526 0.21465436 -0.3551534 0.013086555 -0.07087928 -0.24824174 -0.046554703
-0.096421085 0.026417265 -0.042201612 -0.072051466 -0.14755306 -0.30660364 -0.048751395 0.02452652
0.30130237 -0.39974797 -0.003707714 -0.01351851 -0.060078643 0.0033599755 -0.12868196 0.17641966
-0.11117845 0.006547761 0.123511195 -0.123399526 0.14111337 0.043660015 0.1446193 0.21091636
0.14885274 -0.29309097 -0.45576885 0.22120161 -0.048781216 -0.075737126 -0.06366518 0.31330556
0.082345985 -0.082294196 -0.051154103 0.028283805 -0.3758759 -0.18405794 -0.118222184 -0.25863642
0.1632781 0.24185109 0.2832381 -0.038354367 -0.26254117 -0.28644347 -0.27384436 -0.13479467
-0.14470425 -0.2809389 -0.18774058 -0.21855785 -0.25231707 -0.119602874 0.07081361 0.056773316
0.015812587 0.078082524 -0.31617367 -0.121058434 -0.012268276 0.11698126 -0.056342144 0.22587729
0.17450283 -0.08962759 0.054693945 0.08864782 -0.35817128 -0.44095543 0.165831 0.08491375
0.17647736 -0.27105013 0.04698953 -0.1545786 -0.049713135 -0.2756894 -0.0044060946 -0.08709136
-0.14478375 0.16941047 -0.164419 -0.3004132 -0.032337934 -0.106252044 -0.042119324 -0.16671747
0.087557055 -0.27845135 0.078330725 -0.23562525 -0.12879656 -0.218225 -0.2887379 0.10661756
-0.087461606 0.16956417 0.305654 -0.18473402 -0.36095318 0.014651341 -0.054423917 -0.14821012
-0.036666848 0.101893455 -0.06578134 -0.20518757 -0.015673488 0.031702515 -0.34609994 -0.085686095
-0.11510125 -0.1661423 0.16720723 0.107740976 -0.047939386 0.12004377 -0.10561407 -0.26247156
-0.007117022 0.03414688 -0.19541821 0.012232103 0.048372705 -0.2440381 -0.03536697 -0.21694767
0.16146772 -0.1590581 -0.10361257 0.02081406 -0.14511809 -0.08380386 -0.28693357 -0.21328852
-0.1620388 -0.19527201 -0.056438684 -0.57207906 -0.2646654 -0.17434976 -0.002754204 -0.41601062
-0.08788681 0.06895782 0.026963843 -0.2838864 -0.09982619 0.11988264 -0.11291205 0.02314898
0.17420642 -0.2511363 -0.30109885 -0.22299841 0.12321872 0.16194054 -0.21846715 -0.28120425
-0.29994074 -0.1839515 -0.2309319 -0.029143423 -0.26417723 -0.27186203 -0.062051117 0.009988219
-0.11049418 0.06485927 0.07342899 0.21951962 0.02299495 0.047360443 -0.15042584 0.045004707
-0.56040454 -0.005236445 0.10122498 -0.1919102 0.17639036 -0.6340034 0.055857196 -0.113975644
0.08393577 0.042032897 0.07044439 0.13584474 -0.17463976 0.07126868 0.19877505 0.024790315
-0.1235504 0.0988402 -0.27235198 0.30229613 0.16878915 -0.0771901 -0.4107911 -0.5316234
0.19204818 -0.03856166 0.2733145 -0.31120622 0.17275417 -0.26074255 -0.15168527 0.29191825
00000000: 353c 043e c584 993e 0e52 d83e effc 0e3e
00000010: 964e 4cbe a2ca bc3d 952a e4bd 5e66 7f3e
00000020: 12a5 013e 864a a23e 5258 f3bd a072 f5bd
00000030: da31 9bbe 4212 e5bb b990 26bd a0f3 043e
00000040: daf9 e5bc 8909 843e 1ec4 66be 5b39 ab3e
00000050: 45a3 9cbe cc0a 8cbc 98cc 973e 500c 953e
00000060: 7cf1 9cbc e350 56bd bfa2 b5bd 98be 09be
00000070: 86b4 9fbe f4c3 763e 8e05 243c 3015 c7bc
00000080: 1a1a 5e3e d42d dfbd ca07 87bd 684c 783e
00000090: 1187 4fbc f077 64be f02e ce3c b27e 42bd
000000a0: 83be ae3e 95e4 093d 5ace 5b3e abd6 b5be
000000b0: fd68 563c 2829 91bd 1533 7ebe 25b0 3ebd
000000c0: 6b78 c5bd 0569 d83c 99db 2cbd b88f 93bd
000000d0: 2618 17be 27fb 9cbe 8baf 47bd d7eb c83c
000000e0: 4e44 9a3e c4ab ccbe 1efd 72bb be7c 5dbc
000000f0: 0615 76bd 0933 5c3b 34c5 03be 5ba7 343e
00000100: 87b1 e3bd 9a8e d63b 70f3 fc3d e4b8 fcbd
00000110: 0680 103e d8d4 323d 1517 143e 75fa 573e
00000120: da6c 183e 0510 96be 895a e9be ad82 623e
00000130: d0ce 47bd 111c 9bbd e462 82bd 9669 a03e
00000140: 03a5 a83d dc89 a8bd f786 51bd 70b3 e73c
00000150: ce72 c0be af79 3cbe 791e f2bd fe6b 84be
00000160: 6032 273e d0a7 773e 9604 913e 7819 1dbd
00000170: cc6b 86be b8a8 92be 5435 8cbe 9d07 0abe
00000180: 5a2d 14be 39d7 8fbe 113f 40be a1cd 5fbe
00000190: b42f 81be 5af2 f4bd ba06 913d 238b 683d
000001a0: 6689 813c bbe9 9f3d 84e1 a1be 7ced f7bd
000001b0: e100 49bc df93 ef3d 05c7 66bd 604c 673e
000001c0: dfb0 323e ab8e b7bd c206 603d fd8c b53d
000001d0: 3a62 b7be e9c4 e1be 9acf 293e 43e7 ad3d
000001e0: 7bb6 343e 15c7 8abe 1878 403d da49 1ebe
000001f0: 00a0 4bbd 2927 8dbe 0061 90bb f45c b2bd
00000200: 3142 14be f079 2d3e 745d 28be c2cf 99be
00000210: c874 04bd ac9a d9bd 5085 2cbd fcb7 2abe
00000220: 1d51 b33d 2d91 8ebe dc6b a03d bf47 71be
00000230: 3fe3 03be 6076 5fbe 74d5 93be 4f5a da3d
00000240: 121f b3bd 3ba2 2d3e ae7e 9c3e ea2a 3dbe
00000250: dbce b8be 2e0c 703c 9deb 5ebd 65c4 17be
00000260: fa2f 16bd 84ad d03d 5eb8 86bd b11c 52be
00000270: b065 80bc 7fda 013d 0334 b1be 317c afbd
00000280: 34ba ebbd 3521 2abe 5f38 2b3e 4da7 dc3d
00000290: 175c 44bd 82d9 f53d 314c d8bd ac62 86be
000002a0: e835 e9bb 99dd 0b3d b61b 48be 2969 483c
000002b0: 7522 463d 20e5 79be f5dc 10bd 8827 5ebe
000002c0: cb57 253e 20e0 22be d432 d4bd 3f82 aa3c
000002d0: d699 14be 5ca1 abbd f5e8 92be 4e68 5abe
000002e0: 80ed 25be 63f5 47be 402c 67bd c673 12bf
000002f0: 3982 87be be88 32be e07f 34bb 58ff d4be
00000300: 00fe b3bd c239 8d3d 47e3 dc3c 8f59 91be
00000310: ac71 ccbd 0885 f53d 6f3e e7bd eea2 bd3c
00000320: 2b63 323e f094 80be a129 9abe b259 64be
00000330: 195a fc3d bed3 253e dab5 5fbe 01fa 8fbe
00000340: d591 99be c85d 3cbe 6979 6cbe 30be eebc
00000350: 3d42 87be 8031 8bbe 5029 7ebd a0a5 233c
00000360: c64a e2bd f0d4 843d f061 963d c0c9 603e
00000370: e85f bc3c 06fd 413d 3b09 1abe db56 383d
00000380: ac76 0fbf 7c96 abbb 0b4f cf3d 1c84 44be
00000390: ad9f 343e 0c4e 22bf 84ca 643d 106c e9bd
000003a0: 84e6 ab3d b02a 2c3d 2645 903d e21a 0b3e
000003b0: c4d4 32be 50f5 913d b08b 4b3e 0f15 cb3c
000003c0: fe07 fdbd bb6c ca3d b871 8bbe 8fc6 9a3e
000003d0: 10d7 2c3e d815 9ebd 3653 d2be 7918 08bf
000003e0: 47a8 443e d5f2 1dbd e1ef 8b3e 6c56 9fbe
000003f0: 78e6 303e 0c80 85be 6253 1bbe 4f76 953e

linear1.bias f4 [256]
-0.08316847 0.041733693 0.24685195 0.0513135 -0.01177528 0.2763379 -0.34379244 -0.05993981
-0.087844044 -0.106972836 -0.14969839 -0.17346871 -0.22833565 -0.38547194 -0.40855557 -0.22921534
-0.2102008 -0.27209994 0.16833878 -0.3014765 0.33193588 -0.31236866 -0.15404433 -0.3742733
0.018812746 0.061839733 -0.26072752 -0.187851 0.070624225 -0.02982197 0.077818245 0.091745436
-0.049332816 0.13299908 -0.15516736 -0.2792884 -0.23080468 -0.23936777 -0.120358124 -0.20777905
0.18209255 -0.24211481 0.11014992 -0.16862954 -0.03592129 -0.34722707 0.031179296 0.09695743
-0.13718691 -0.34601286 0.25426972 -0.15777378 -0.14701182 0.07221716 0.0498255 0.055335585
-0.20594135 -0.29339123 0.35415727 -0.31317753 -0.11739399 0.2574288 -0.15886398 0.048903946
0.075973034 -0.2907669 -0.14053808 -0.43256512 -0.17639706 -0.40387192 -0.20383094 0.0077269482
0.13952363 -0.46983162 -0.192918 -0.4470726 -0.17897059 -0.15893401 -0.1515786 -0.039672803
-0.04370397 -0.38377786 0.053524517 -0.15260789 -0.27460116 -0.1959236 -0.074630335 -0.18182763
-0.0596929 -0.0007089529 -0.08622133 -0.46871513 0.04590884 0.14872792 -0.5162522 -0.35176653
0.28744572 -0.36028773 -0.19379124 -0.2241808 -0.09274414 -0.3894088 0.063268065 0.026753504
0.17077003 -0.43118748 -0.06178062 -0.21644947 -0.24788892 0.0063967006 -0.28108966 -0.12662989
0.11405979 0.041065067 0.051516887 -0.05698912 -0.22567761 -0.20665735 0.01418115 -0.18879436
-0.18889244 0.084706664 0.03297991 -0.39425346 -0.08186815 -0.32457945 -0.20174697 -0.316276
-0.120801814 -0.38916147 -0.18723097 -0.26963523 -0.07760112 -0.069290146 -0.32354432 0.15087561
0.12520783 -0.017552456 0.055063955 -0.040300995 -0.088690154 -0.34552053 -0.032291174 0.11553012
-0.10935297 -0.3049974 0.041717272 -0.2530741 -0.059987184 -0.3117709 -0.043915305 -0.14252178
-0.34093118 0.0021808506 -0.13616276 -0.089321434 0.030886183 -0.32676032 -0.365257 -0.17458025
0.033190846 0.084215075 -0.02304214 0.048147082 0.07460864 0.027168453 -0.09856053 -0.10226831
-0.30594385 0.13664386 -0.04137894 -0.32879612 -0.057409473 0.0054355073 -0.014929022 -0.0704589
-0.19938478 -0.37542814 0.11459339 -0.06377419 -0.33810905 0.17587617 -0.20147146 0.24487661
-0.04646323 -0.4082924 0.13499269 -0.20278686 -0.19699654 -0.28206924 -0.10479961 -0.21554245
-0.075701915 -0.16839692 -0.4816819 -0.50962526 0.08724725 -0.19197437 0.051422182 -0.13832565
-0.12248488 -0.41450897 -0.14083853 0.15153243 0.08550119 -0.17242457 -0.364543 -0.14993972
-0.29537007 0.117003836 -0.033911664 -0.17391971 -0.11102784 -0.26325822 -0.21535723 -0.17759253
-0.07208833 -0.3885585 -0.21210884 0.21013129 -0.029862061 0.20775545 -0.10861826 -0.21341363
-0.09088862 -0.4563211 -0.15786451 0.23631762 0.15293585 -0.32649618 -0.36849093 -0.49391448
-0.15453933 -0.33203468 -0.17990819 -0.36122894 -0.14846338 0.12975077 -0.3010522 -0.047275577
-0.21986607 -0.1182162 -0.32195374 -0.4046558 0.030332308 -0.035953477 -0.2534594 0.06905769
-0.088854596 -0.26060873 0.042537916 -0.20227146 -0.09817435 -0.070571125 -0.15419638 -0.30516666
00000000: 3b54 aabd f3f0 2a3d c2c6 7c3e 1b2e 523d
00000010: 1bed 40bc 297c 8d3e 9005 b0be 7283 75bd
00000020: 94e7 b3bd 9314 dbbd 894a 19be c8a1 31be
00000030: d2d0 69be 945c c5be 322e d1be 6db7 6abe
00000040: e13e 57be af50 8bbe 0061 2c3e 215b 9abe
00000050: 80f3 a93e c9ee 9fbe ccbd 1dbe c0a0 bfbe
00000060: 301d 9a3c a94b 7d3d 147e 85be 035c 40be
00000070: 6fa3 903d 344d f4bc 2c5f 9f3d 08e5 bb3d
00000080: 3511 4abd e930 083e 31e4 1ebe e4fe 8ebe
00000090: 1058 6cbe d31c 75be 527e f6bd 08c4 54be
000000a0: 7876 3a3e f2ec 77be 4896 e13d 39ad 2cbe
000000b0: 3422 13bd bfc7 b1be b96b ff3c 9e91 c63d
000000c0: ba7a 0cbe 9928 b1be a42f 823e 738f 21be
000000d0: 448a 16be 97e6 933d d315 4c3d 91a7 623d
000000e0: 4ae2 52be 6037 96be 1a54 b53e ce58 a0be
000000f0: 436c f0bd b5cd 833e 3dad 22be 814f 483d
00000100: c097 9b3d 66df 94be 37e9 0fbe 2d79 ddbe
00000110: 6ea1 34be 4dc8 cebe 0fb9 50be 5732 fd3b
00000120: 48df 0e3e c58d f0be 4c8c 45be b3e6 e4be
00000130: 1144 37be 99bf 22be 6c37 1bbe f37f 22bd
00000140: ef02 33bd 887e c4be 863c 5b3d 3e45 1cbe
00000150: 8698 8cbe 32a0 48be cad7 98bd 0631 3abe
00000160: 8b80 74bd 06d9 39ba cf94 b0bd 6efb efbe
00000170: e80a 3c3d 224c 183e 1b29 04bf be1a b4be
00000180: 162c 933e a277 b8be 3671 46be a78f 65be
00000190: a4f0 bdbd 9760 c7be b092 813d 2a2a db3c
000001a0: 57de 2e3e 9bc4 dcbe ad0d 7dbd eea4 5dbe
000001b0: 98d6 7dbe 6a9b d13b fcea 8fbe 44ab 01be
000001c0: 2e98 e93d d833 283d 5f03 533d 6c6d 69bd
000001d0: 0818 67be fc9d 53be 0e58 683c 4f53 41be
000001e0: 056d 41be b07a ad3d f115 073d 97db c9be
000001f0: 7daa a7bd 472f a6be c296 4ebe eeee a1be
00000200: f166 f7bd 2c40 c7be 7ab9 3fbe a10d 8abe
00000210: 56ed 9ebd fee7 8dbd 9aa7 a5be 237f 1a3e
00000220: 7b36 003e 2bca 8fbc be8a 613d a812 25bd
00000230: 2fa3 b5bd 11e8 b0be c043 04bd 0e9b ec3d
00000240: 73f4 dfbd 9f28 9cbe bbdf 2a3d ee92 81be
00000250: 1fb5 75bd 6fa0 9fbe 89e0 33bd 3bf1 11be
00000260: 888e aebe 9aec 0e3b 406e 0bbe 28ee b6bd
00000270: 0505 fd3c 214d a7be f702 bbbe 2ac5 32be
00000280: 20f3 073d f478 ac3d dfc2 bcbc e035 453d
00000290: 6acc 983d 6090 de3c 1ada c9bd 0c72 d1bd
000002a0: aca4 9cbe 5eec 0b3e f77c 29bd f757 a8be
000002b0: 3226 6bbd 571c b23b db98 74bc c14c 90bd
000002c0: 862b 4cbe 1e38 c0be f0af ea3d 0b9c 82bd
000002d0: a11c adbe e218 343e 894e 4ebe efc0 7a3e
000002e0: 3a50 3ebd b40b d1be 863b 0a3e 5ca7 4fbe
000002f0: 76b9 49be 616b 90be 2ea1 d6bd 29b7 5cbe
00000300: 9b09 9bbd 3e70 2cbe 039f f6be cd76 02bf
00000310: b0ae b23d ee94 44be 11a0 523d 3da5 0dbe
00000320: 5ad9 fabd 853a d4be fa37 10be 512b 1b3e
00000330: 3f1b af3d 1190 30be 61a5 babe cc89 19be
00000340: bf3a 97be b59f ef3d f5e6 0abd 0218 32be
00000350: 9062 e3bd c8c9 86be 9b86 5cbe d1da 35be
00000360: 0ca3 93bd 24f1 c6be 0f33 59be a82c 573e
00000370: 48a1 f4bc d8bd 543e 4073 debd 1a89 5abe
00000380: d023 babd eba2 e9be 3ca7 21be 3ffd 713e
00000390: 379b 1c3e 822a a7be d8aa bcbe 5ce2 fcbe
000003a0: 8f3f 1ebe 7300 aabe da39 38be 00f3 b8be
000003b0: c906 18be 63dd 043e 8423 9abe 09a4 41bd
000003c0: 9224 61be 561b f2bd 1fd7 a4be 0c2f cfbe
000003d0: 767b f83c f443 13bd 6ec5 81be 1e6e 8d3d
000003e0: 66f9 b5bd 826e 85be 3d3c 2e3d 4020 4fbe
000003f0: a20f c9bd 9887 90bd a8e5 1dbe ce3e 9cbe

linear2.weight f4 [3, 256]
-0.08377273 0.049398378 -0.08580483 -0.019855278 -0.04472554 -0.070292026 0.012311874 -0.048200436
0.029050186 0.028096633 -0.10202915 -0.048087917 -0.03755264 -0.08922931 -0.034105204 -0.017803995
-0.043450307 -0.036468282 -0.013346564 0.041414507 -0.07163454 -0.1412078 -0.019272277 -0.04970468
0.030263219 -0.17117484 0.017675318 0.01642903 -0.06578909 -0.0470493 0.029823283 -0.015241016
-0.05367318 -0.064913094 0.0123691065 -0.069642015 -0.0015837543 0.037776463 0.0015993798 -0.047995213
-0.12194983 0.10873218 -0.112693936 0.043276038 0.013113499 -0.05810262 -0.08032775 0.0029417635
-0.0489685 -0.03923341 -0.17407328 -0.02710478 -0.06807411 -0.054722738 -0.13304415 0.17892124
-0.046382755 -0.048064396 0.10180531 0.12060635 0.04088698 -0.077853486 -0.057335783 -0.06340262
0.27306432 0.058203757 -0.076377526 -0.06845686 -0.024709769 0.044754766 -0.048584223 -0.13118003
0.05337673 0.0642139 0.03090124 0.048720285 -0.026110176 0.008361755 -0.08042218 0.06729374
-0.017286992 -0.105099894 0.043118645 -0.12494538 -0.055563003 -0.048159212 0.020786539 -0.0073909233
-0.023630202 -0.12142232 -0.045903336 -0.0957942 0.010800663 -0.07625607 -0.012779638 -0.013982393
-0.20838495 -0.0381326 0.034668256 0.01188148 0.05208459 -0.049490936 0.049609035 -0.07091678
-0.12185618 -0.17579263 -0.03729 -0.036387283 -0.02451917 -0.10701018 0.0045382082 -0.04826484
0.08957783 -0.035506137 0.03297884 -0.038224533 -0.020514926 -0.13189664 -0.048642065 -0.040308576
0.052669026 -0.05359103 0.04762415 -0.044355873 -0.07294009 0.036286816 -0.07320582 0.049979214
-0.081340805 0.01850737 0.041309685 -0.11419129 -0.005137235 -0.12124751 -0.11474983 0.025260676
0.01516415 0.0122981 -0.21572644 -0.09353503 -0.06880346 -0.012808263 -0.06137443 -0.12354245
-0.006129525 0.09726201 0.02007585 -0.055127535 0.025756096 -0.09544274 0.041946504 0.0019480176
-0.008488081 -0.027926063 -0.032428727 -0.021116655 -0.033077296 -0.026872851 0.10774124 -0.042658035
-0.13575217 -0.042912137 0.07618658 0.08594343 -0.031769212 -0.14352344 -0.1492566 0.030108392
0.10450132 -0.13847183 -0.059000883 -0.024569891 -0.14897619 -0.14064349 -0.04765943 -0.0134828035
-0.0030724749 -0.029091284 -0.04920986 -0.097557984 0.027037375 -0.01223374 -0.14993238 -0.14783943
-0.241049 0.059268363 -0.10900917 -0.090582766 -0.017053835 0.056277163 -0.07427248 -0.06585754
-0.018500116 -0.046649523 0.012791827 0.072566904 -0.07647185 -0.13316485 -0.010534498 -0.15872042
-0.052497737 0.011618798 -0.017355695 -0.097260356 -0.060897894 0.007899837 -0.098596044 -0.058262568
-0.013902806 -0.15930228 -0.09710106 0.12092635 -0.01740374 0.013975531 -0.02903804 0.11452632
-0.045849487 -0.10479604 -0.01801446 0.046786953 -0.065913424 -0.06331891 0.01947998 -0.12325462
0.24186228 0.0019840738 -0.09681294 -0.0140053695 -0.059349895 0.047453552 0.05272413 -0.04163517
-0.12446723 -0.10013429 0.011862856 0.03597692 0.020324431 0.01975032 0.022105113 -0.062105853
0.06174875 -0.028300716 0.035519198 -0.11540834 -0.00057195226 -0.06860788 0.12455685 -0.019958552
0.00053300406 -0.016206058 -0.08354119 0.039204787 -0.026107453 -0.017329091 -0.067421146 0.033869818
00000000: 0991 abbd f455 4a3d 71ba afbd 89a7 a2bc
00000010: 2132 37bd 44f5 8fbd beb7 493c d26d 45bd
00000020: a8fa ed3c e92a e63c a9f4 d0bd d6f7 44bd
00000030: ccd0 19bd dbbd b6bd e6b1 0bbd afd9 91bc
00000040: f3f8 31bd c45f 15bd 8cab 5abc 42a2 293d
00000050: 21b5 92bd c798 10be e5e0 9dbc 2297 4bbd
00000060: 92ea f73c 7548 2fbe d4cb 903c 2c96 863c
00000070: 6ebc 86bd c4b6 40bd f54f f43c 74b5 79bc
00000080: 69d8 5bbd 28f1 84bd cba7 4a3c 79a0 8ebd
00000090: fa95 cfba 7ebb 1a3d 48a2 d13a a196 44bd
000000a0: d5c0 f9bd faae de3d 14cc e6bd 3742 313d
000000b0: 00da 563c 03fd 6dbd e082 a4bd 9aca 403b
000000c0: 3293 48bd 36b3 20bd 4440 32be d80a debc
000000d0: 706a 8bbd f324 60bd ba3c 08be 2137 373e
000000e0: d8fb 3dbd 2cdf 44bd 4d7f d03d 7600 f73d
000000f0: 1b79 273d a671 9fbd edd8 6abd 3cd9 81bd
00000100: 16cf 8b3e 1067 6e3d d26b 9cbd 1c33 8cbd
00000110: 246c cabc c650 373d 4000 47bd 0f54 06be
00000120: 8fa1 5a3d 9482 833d 9924 fd3c ec8e 473d
00000130: 02e5 d5bc beff 083c 62b4 a4bd 4dd1 893d
00000140: 739d 8dbc 9d3e d7bd 2d9d 303d 5de3 ffbd
00000150: 0896 63bd 9842 45bd 8848 aa3c 8f2f f2bb
00000160: 2094 c1bc 44ac f8bd 2305 3cbd c02f c4bd
00000170: 44f5 303c 242c 9cbd b061 51bc 6816 65bc
00000180: dd62 55be ee30 1cbd 4d00 0e3d 8aaa 423c
00000190: a756 553d 02b7 4abd d832 4b3d d13c 91bd
000001a0: bc8f f9bd fc02 34be 66bd 18bd d50a 15bd
000001b0: 6ddc c8bc 2728 dbbd 40b5 943b 5ab1 45bd
000001c0: 9574 b73d e26e 11bd d214 073d 5491 1cbd
000001d0: eb0e a8bc ea0f 07be e73c 47bd 9b1a 25bd
000001e0: 7abb 573d 4582 5bbd 8a11 433d 81ae 35bd
000001f0: 9d61 95bd 7ca1 143d efec 95bd 01b7 4c3d
00000200: 0296 a6bd c59c 973c 5834 293d 20dd e9bd
00000210: 4056 a8bb 9d50 f8bd f501 ebbd 7aef ce3c
00000220: 0e73 783c f87d 493c 64e7 5cbe 4b8f bfbd
00000230: d4e8 8cbd c0d9 51bc c163 7bbd d303 fdbd
00000240: 2fda c8bb 4e31 c73d 1c76 a43c 69cd 61bd
00000250: 73fe d23c 7c77 c3bd 19d0 2b3d a054 ff3a
00000260: 9811 0bbc 33c5 e4bc fcd3 04bd d6fc acbc
00000270: 0f7c 07bd 7424 dcbc 70a7 dc3d 31ba 2ebd
00000280: 9e02 0bbe a3c4 2fbd b607 9c3d 1c03 b03d
00000290: 6f20 02bd cff7 12be b9d6 18be e0a5 f63c
000002a0: ca04 d63d 8fcb 0dbe e9aa 71bd cc46 c9bc
000002b0: 378d 18be d904 10be 8936 43bd fae6 5cbc
000002c0: 935b 49bb d850 eebc 4790 49bd 7bcc c7bd
000002d0: 7c7d dd3c 0670 48bc e087 19be 3863 17be
000002e0: 8dd5 76be 62c3 723d 3340 dfbd 7583 b9bd
000002f0: 7cb4 8bbc e282 663d 2c1c 98bd 51e0 86bd
00000300: 8e8d 97bc 9213 3fbd d094 513c f59d 943d
00000310: 469d 9cbd 5e5c 08be e398 2cbc 9b87 22be
00000320: de07 57bd c55c 3e3c 882d 8ebc 7030 c7bd
00000330: 1270 79bd 516e 013c b9ec c9bd bba4 6ebd
00000340: 98c8 63bc 2320 23be ecdc c6bd 3ca8 f73d
00000350: 4a92 8ebc a0f9 643c 2fe1 edbc c68c ea3d
00000360: accc 3bbd 4e9f d6bd 1093 93bc ada3 3f3d
00000370: 9efd 86bd 58ad 81bd 7b94 9f3c eb6c fcbd
00000380: bfaa 773e 3c07 023b dd45 c6bd c776 65bc
00000390: e018 73bd a85e 423d 42f5 573d a489 2abd
000003a0: ade8 febd 3513 cdbd 6d5c 423c 895c 133d
000003b0: 6c7f a63c 6ccb a13c c815 b53c b562 7ebd
000003c0: 42ec 7c3d e7d6 e7bc 947c 113d 355b ecbd
000003d0: 11ef 15ba 4a82 8cbd a917 ff3d 1e80 a3bc
000003e0: 4cb9 0b3a 91c2 84bc a517 abbd 3395 203d
000003f0: 4cdf d5bc bdf5 8dbc 1914 8abd 14bb 0a3d

linear2.bias f4 [3]
-0.15893656 -0.10749193 0.0021638134
00000000: 44c0 22be bb24 dcbd c4ce 0d3b
