model/model.pth (torch, 16799 bytes, 4 tensors)

linear1.weight f4 [256, 11]
00000000: e2ec 60be 95ec 15be 609d 3d3c dc09 26be
00000010: 0054 5abd 3a47 5abe a2a2 973c 1fc9 083e
00000020: 21fa 00be ac1e 94be b982 77be 6468 bf3d
00000030: 5f37 1bbe 46e9 c6bd 214c 8fbe 8e8c eaba
00000040: 21a2 aebd b6ac 3e3e 2c3b 66be 8f5f d4bd
00000050: 6c24 b3be a679 78be 11e1 74be ed66 17be
00000060: a03a 253d aa5e d63d 28e4 abbd 1dce 79be
00000070: 3f30 18bd 1e4e c83d c3ce 073e 8c19 cbbd
00000080: 4d80 8fbe 0456 363e d76e 20be e771 87be
00000090: 1b6e afbc a236 423e beef 80be 6042 8b3c
000000a0: 50fe 3cbe 295b 8bbe 2943 2fbe 17d8 13be
000000b0: 74ff 033e e8f4 e7bd 008e 4dbe da56 2fbe
000000c0: c57d 97be 4019 b33b 9749 513e ecd8 4cbd
000000d0: 00bb fcbd e286 28be 659c 7abe ec2e 663e
000000e0: 8069 f1bd ca5d aebb 1ec3 1bbd 73f3 34be
000000f0: a0d1 53bc f887 74bd b013 8bbe f65f a6be
00000100: abff c7bd c258 97be 5394 55be f3ce 81bd
00000110: 8095 593d 6efb 68be 0077 34be 21ac 90be
00000120: b912 b4be e43f ccbe 6b34 31be 4396 94be
00000130: 3ec3 d6be 7807 b8bd aad3 efbe 3bf1 753e
00000140: e5d4 12be b172 0f3d 08bb d7be d817 acbe
00000150: 5713 a9be 7876 d9be 5aa3 62bd b7db acbe
00000160: 8701 11bf 74fa bdbe 9fc0 b93f 33d3 3cbf
00000170: 0d33 1dbe f777 eebe 31e0 21bf ff3c 1fbf
00000180: f97b f4be e42b 44bf 447d 00bf 768d bcbd
00000190: e544 8dbe 7008 833e a2ed 2fbe 7f45 33bd
000001a0: f43f 2fbe e6a8 58be 927b babe f934 01be
000001b0: db22 e4be 0ca7 babe d479 92be 7684 8abe
000001c0: 2661 98be 28a6 62be 2344 2e3e 7fb9 3fbe
000001d0: 12f6 76bd ab47 85be 3cdf 85bd 8b47 7abc
000001e0: 26ef e7be 94b3 6dbe 6d0f 88be 900e dd3d
000001f0: 867a 9dbd fafc a5be 74c3 46be 7640 1abf
00000200: 0be2 d6be 934c e4be 5271 6dbe eb02 acbe
00000210: 4914 1cbe 1a30 74be 7c49 e9bd 0c3f b2bd
00000220: 041a 143e 7fc0 2a3e f4e2 b8bd a431 45be
00000230: 00d8 8dbe c0e2 773e 70b6 0a3c 39bf 29be
00000240: 053b b9be 98cf b7bc bc88 dbbb fefe b9bd
00000250: 54ff cfbd b4fd ccbe e9ed bb3a 2656 61be
00000260: c301 9ebc f3bf 82be c632 75be cc0b 78be
00000270: 5da4 1ebe 3a20 9bbe ec9e 843c 51e7 1dbe
00000280: 956f 1c3d 0ec0 88be 536c febb 0c10 503d
00000290: 1845 b2be 208c 63bc 86f6 86bd fe49 a1bd
000002a0: a03e 68bc 4d45 60be 255b d93d e69c 88be
000002b0: 370c bfbc ab72 e5be 3e36 1bbe 9dfc 8cbe
000002c0: f7e8 983c ed1f b4be 792d 213e 068a 40be
000002d0: 7c51 6fbe 7f07 28be 3778 5ebe f890 1dbe
000002e0: 7be0 78be 6345 0dbe b094 87be 5f80 19be
000002f0: 8f53 88be 5f22 26bd e766 b7bd 94b0 b5bd
00000300: a28b 70be 421f 973c d231 07bf 5d7f bfbe
00000310: 7e9c 6fbf 9f63 87be 4559 a5bd 963e 70be
00000320: 4ecc fdbd cde3 8cbb dd95 803c 4af3 0ebe
00000330: 383c 3a3e 2958 74be ca52 51be c324 59be
00000340: 164b 27be 7ffb aebe d0ee b83f 539d 3b3e
00000350: b403 9cbe e0da 7cbf 4de5 bbbf d429 97bf
00000360: 13b3 f2bf 64d0 e2bf 0d73 a8bf 5bb4 47bf
00000370: 0d1b fabe 152e ae3d 0333 713e d862 b0be
00000380: 71d1 e23c 5b8a 08be 9126 d3be 5874 b1be
00000390: 75fa 9ebe 538c 0cbf 1410 6ebe c78e b43d
000003a0: c925 f93f 0a04 18be 1488 47bf 98cd c0bf
000003b0: aa09 b9bf 8883 a2bf fd22 11c0 18cb 86be
000003c0: f68e aabf 39f2 22bf cfc6 c3be 0cc9 99be
000003d0: a372 83bd 8655 ddbd fdfb 85bd 82de 393d
000003e0: 1a68 29be 6da2 3abe 6e15 16bc 18df 95be
000003f0: 4a4e e8be 8eab ba3d e975 18be 26a4 8dbe
-0.21965364 -0.1464103 0.011573166 -0.16214699 -0.053302765 -0.21316233 0.018510167 0.13357972
-0.12595417 -0.2892965 -0.2417096 0.09346083 -0.15157841 -0.09712462 -0.2798777 -0.0017894672
-0.085270174 0.18620571 -0.2248351 -0.10369789 -0.34988725 -0.24265155 -0.23913981 -0.14785357
0.040339112 0.104672745 -0.08393127 -0.24395032 -0.037155386 0.09780525 0.13262467 -0.09916982
-0.28027573 0.1780625 -0.15667282 -0.26454088 -0.021414807 0.18966153 -0.2518291 0.016999424
-0.18456388 -0.27217987 -0.17115463 -0.144379 0.12890416 -0.11326009 -0.200737 -0.17122975
-0.29588142 0.0054656565 0.20438229 -0.05001156 -0.12340355 -0.16457704 -0.24473722 0.22478837
-0.11787701 -0.005321239 -0.038027875 -0.17670994 -0.012928396 -0.059699982 -0.27163458 -0.32495087
-0.09765562 -0.29559904 -0.20857362 -0.063383006 0.05312109 -0.22752163 -0.1762352 -0.28256324
-0.35170534 -0.39892495 -0.17305152 -0.2902089 -0.41945833 -0.089857996 -0.46841174 0.24017803
-0.14339025 0.035021488 -0.4213488 -0.3361194 -0.33022568 -0.42473197 -0.055331565 -0.3376138
-0.56642956 -0.37105143 1.4511908 -0.73759764 -0.15351506 -0.465759 -0.63232714 -0.6220245
-0.47750834 -0.7662947 -0.5019114 -0.09206669 -0.27591625 0.25592375 -0.17180493 -0.04376745
-0.1711424 -0.2115818 -0.36422402 -0.12617864 -0.44557843 -0.36455572 -0.28608572 -0.27054185
-0.29761618 -0.22133696 0.1701818 -0.18723105 -0.060293265 -0.2603124 -0.06536719 -0.015275846
-0.45299643 -0.23213035 -0.2657427 0.10793793 -0.07689385 -0.32419568 -0.19410497 -0.6025461
-0.41969332 -0.44589671 -0.2318776 -0.33595976 -0.15242113 -0.23846474 -0.11390969 -0.087034315
0.14463049 0.16674994 -0.09027663 -0.19257218 -0.27703857 0.24207592 0.008466348 -0.16576852
-0.3617784 -0.022437856 -0.0066996496 -0.09081839 -0.10156122 -0.4003731 0.001433787 -0.2200552
-0.01928795 -0.2553707 -0.2394515 -0.2422325 -0.15492387 -0.30298024 0.016189061 -0.15420271
0.03819235 -0.26709026 -0.007764378 0.050796553 -0.3481834 -0.013888389 -0.06589989 -0.07875441
-0.014175087 -0.21901436 0.106130876 -0.26682204 -0.023321254 -0.44814047 -0.1515741 -0.2753648
0.018665774 -0.35180607 0.15740003 -0.18802652 -0.23370928 -0.1640911 -0.21725546 -0.15387332
-0.24304383 -0.13796 -0.26480627 -0.14990376 -0.2662625 -0.040560123 -0.08955174 -0.0887157
-0.23490766 0.018447522 -0.52810395 -0.37401858 -0.93598163 -0.26443192 -0.080736674 -0.23461375
-0.12392484 -0.004299617 0.01569646 -0.13959995 0.18187034 -0.23861755 -0.20441738 -0.2120543
-0.16337237 -0.3417625 1.444788 0.18321733 -0.30471575 -0.98771477 -1.4679352 -1.180964
-1.8960899 -1.7719846 -1.3160111 -0.78009576 -0.48848763 0.08504883 0.23554616 -0.34450412
0.02768776 -0.13334028 -0.4124036 -0.34659076 -0.3105046 -0.5490162 -0.23248321 0.08816295
1.9464656 -0.14845291 -0.77942014 -1.5062742 -1.4456074 -1.269639 -2.2677605 -0.26326823
-1.3324878 -0.6365085 -0.38237616 -0.300362 -0.064183496 -0.10807328 -0.065422036 0.045378216
-0.16543618 -0.18226023 -0.009160383 -0.2927177 -0.4537223 0.09114753 -0.14888729 -0.27664298

linear1.bias f4 [256]
00000000: 25b7 a8be a54a ecbe 371c b0be 97db e4be
00000010: 6653 b6be 74be c6be c0c6 d7be 6b0a 2ebe
00000020: 1932 63bf 716b 25be 7c05 00bf 041a dfbe
00000030: 9dc1 d7be 4e98 d8be ea7b bdbd ad52 08bf
00000040: 0ae1 73be 2e90 00bf b9c9 d3be fc1c b1bf
00000050: 0052 78bf ce2a 87bf d7bc 4cbf 55b8 e4bd
00000060: 01aa 29bf 6577 9bbf d252 d6be 396b 97be
00000070: ebad 0abf 491a b8be cfa8 58bf 6099 8fbe
00000080: 5772 bbbf 0359 26bf 0a42 6dbe 9d6e a7be
00000090: 6ecd 06bf 4b0b 8bbf c556 d1be 1514 11bf
000000a0: d1ab cebf 365a 6cbe 2cc5 8ebf 1f77 ecbe
000000b0: a224 bcbe a5e7 a4be 5f0d 50bf b562 29bf
000000c0: 4fe2 bbbf 7d3e 7cbe dc71 b9be 4a1e f6be
000000d0: 9382 82be 42ac f3be 2621 c7be 289e bcbe
000000e0: ff96 a1bd b73d 94be bc99 8ebf 98e6 02bf
000000f0: 9132 04bf c4fc 1dbe 4585 57bf 0bd3 edbe
00000100: 0dc8 10bf c078 56bf 1410 89be 5fe7 83bf
00000110: ff04 0dbf 78c9 66be 935a 07bf 5e10 1fbf
00000120: d65a 19bf 7dc5 3abe 50f6 28bf cc39 e33c
00000130: 80f3 a6be 435d 4abe c326 7bbe f96e abbe
00000140: 6c3d 33bf c79a 51bf b726 47be f6be 18be
00000150: ab68 6dbe dd8f 19bc ec58 9abe 0c96 54be
00000160: 6372 a1be 2d32 bfbe a8d5 18bf 7649 c3be
00000170: 1e69 cebe 2986 d9be 892b d9be a1bd c0be
00000180: fc8f f9be a614 8abe 7476 a4be ce6a d7be
00000190: 65af adbe f370 fcbe cd72 0fbf 1853 c2be
000001a0: 371b 72be 907c 30be 8a19 51be 5fbc 7cbf
000001b0: 4365 2dbf 1073 82be 738e 7abe c0cb 063d
000001c0: 3871 44be d1f4 5ebe 0928 0fbf bc27 bdbe
000001d0: b70e e3bd 5ed0 0fbf 6b74 0fbe 8a28 67bf
000001e0: 7f4f 00bf e41a 25bf 3889 97be c486 21bd
000001f0: 5c33 bfbe 7c0e 8abf 3a48 32bf 9bee f4be
00000200: ada1 25bf b896 90be a27d 0abe 626e 39bf
00000210: 8a01 57bf 63de 60be 2ea6 403f 29d2 ecbe
00000220: e14a 01bf 36d7 39be 0ed2 e1bf 3183 b9be
00000230: 45fb 00bf 24b7 79bf 5773 bcbe d6ff 51bf
00000240: ebe1 05bf d8a9 e4be 963c 9b3f f7ee 30bf
00000250: 555c 17bf 80ab e7be 25c6 65be 22a3 b0be
00000260: 02bf 38bf 6af5 b9be ab47 51be 7934 06bf
00000270: af70 efbe 5fc7 92be 1b3b d8be 063e 92be
00000280: dd21 88be b0fd 7ebf 8f91 dfbe f19a 98be
00000290: b382 0abf a4b2 52be ca7b 1cbf 9a68 3dbe
000002a0: 81b6 94be 1416 f2be 5949 0cbf ecec 44bf
000002b0: 7764 30bf 060c 2dbf 39b6 9ebe e32e b0be
000002c0: 729a 84be 6ec6 f2be dcc5 11bf 9b88 01bf
000002d0: af2c b6bf df45 41be 20c6 7abe 7aa3 f9bd
000002e0: 4a71 e8be 397d f1be ad0d 68bf c388 5fbe
000002f0: 042b 1dbf f780 c8be 8c0b f0be 1700 79bf
00000300: 50b8 5abf 24f6 97be ed0d 84be 9f59 30bf
00000310: 470f 01bf 6264 0fbf 3b23 42be 477c abbf
00000320: 426b 19be da54 42bf 65f9 0fbe ba5e d9be
00000330: 1053 d8be 0daf fdbe 9d0a a4be e7c7 95be
00000340: aff6 35bf 3eec 98be e6fc a1be ce66 efbe
00000350: e3e3 aebe f7dc 06bf b858 10bf 5130 c0bd
00000360: d322 85bf 5adf bfbe c067 21bf f1e0 34bf
00000370: 5d9d 68be ba64 c73d 91b7 31bf 56c8 8ebd
00000380: d1cb e0be 2735 25be c6c5 e9be 40b3 babd
00000390: 0c54 b5be 6d96 bdbd e644 fabe b942 bbbe
000003a0: a79f 75bf 9c17 c7be 69bd 07bf 2f03 41bf
000003b0: 3bf9 913f 9a14 1fbe 4da6 0ebf 9b76 02bf
000003c0: 72b5 94be c8d4 55be 906c e8be fc2e 8cbf
000003d0: 5578 bbbe 779a 28be b7ff ecbe 7195 11bf
000003e0: 94f6 7ebf 82c5 85be 3811 02bf f9c4 ebbe
000003f0: 8daa a2be 5279 c1be e5be fbbe 571b 84be
-0.32952228 -0.461507 -0.34396526 -0.44698784 -0.35610503 -0.3881718 -0.42143822 -0.16996162
-0.8874832 -0.16154267 -0.5000837 -0.43574536 -0.42139903 -0.423037 -0.0925215 -0.53251153
-0.23816314 -0.5022 -0.4136484 -1.383697 -0.9700012 -1.0559938 -0.79975647 -0.11167971
-0.6627503 -1.2145811 -0.41860062 -0.29573992 -0.5417163 -0.35957554 -0.8463258 -0.28046703
-1.4644269 -0.6497957 -0.23169723 -0.3270158 -0.5265721 -1.0862821 -0.40886512 -0.5667127
-1.6146184 -0.23081288 -1.1153922 -0.46184632 -0.367467 -0.3220798 -0.812704 -0.6616624
-1.4678439 -0.24633212 -0.3621968 -0.48069984 -0.25490245 -0.4759236 -0.38892478 -0.36839414
-0.07890128 -0.28953335 -1.1140666 -0.5113311 -0.5163966 -0.15428454 -0.8418773 -0.46450076
-0.56555253 -0.83778 -0.2677008 -1.0304984 -0.5508575 -0.22537792 -0.5287258 -0.6213435
-0.5990423 -0.18239398 -0.66000843 0.02773752 -0.3260765 -0.19762139 -0.24526505 -0.33483103
-0.700156 -0.81876796 -0.19448362 -0.14916596 -0.23184459 -0.009372679 -0.30145967 -0.20760363
-0.31532583 -0.3734297 -0.59701014 -0.38141984 -0.40314573 -0.4248517 -0.42416027 -0.37644675
-0.48742664 -0.26968879 -0.32121623 -0.42073673 -0.33922878 -0.49304923 -0.5603455 -0.3795402
-0.23643194 -0.17235017 -0.20419899 -0.9872493 -0.6773264 -0.2547841 -0.24468403 0.032909155
-0.19183815 -0.21773078 -0.55920464 -0.36944377 -0.11086791 -0.5617732 -0.14009254 -0.9029623
-0.501213 -0.64494157 -0.29596877 -0.039435163 -0.37343872 -1.078567 -0.6964146 -0.47838292
-0.6469982 -0.2823999 -0.13524488 -0.72434056 -0.83986723 -0.21959834 0.7525357 -0.4625409
-0.5050488 -0.18148503 -1.7642229 -0.36232904 -0.50383407 -0.97545075 -0.36806747 -0.82031
-0.5229785 -0.4466083 1.2127864 -0.6911463 -0.5912526 -0.45248032 -0.22438867 -0.3449946
-0.72166455 -0.3632005 -0.20437495 -0.52423817 -0.46765658 -0.28667733 -0.42232594 -0.28562945
-0.26588336 -0.99605846 -0.4366574 -0.2980571 -0.5410568 -0.20575958 -0.6112639 -0.18496934
-0.2904549 -0.4728247 -0.5479942 -0.76924014 -0.689033 -0.6759647 -0.309984 -0.34410772
-0.25899082 -0.47417015 -0.56942534 -0.5059907 -1.4232386 -0.1887431 -0.24489641 -0.12189384
-0.45398933 -0.4716585 -0.9064587 -0.21829514 -0.6139376 -0.39160892 -0.4688381 -0.9726576
-0.8543749 -0.29679978 -0.25791875 -0.6888675 -0.50413936 -0.56012547 -0.18958752 -1.3397301
-0.14982322 -0.75910723 -0.1405998 -0.42455083 -0.42250872 -0.49547616 -0.32039347 -0.29254076
-0.71079534 -0.29867738 -0.3163826 -0.4675812 -0.3415824 -0.52680916 -0.56385374 -0.093842156
-1.0401253 -0.3747509 -0.63048935 -0.70655733 -0.2271628 0.09736009 -0.69420725 -0.06971805
-0.439055 -0.16133557 -0.45658702 -0.091162205 -0.35415685 -0.09257207 -0.4888069 -0.36574343
-0.95946735 -0.388852 -0.5302339 -0.7539548 1.1404184 -0.15535203 -0.55722505 -0.5096223
-0.29044682 -0.20881951 -0.45395327 -1.0951838 -0.36615244 -0.16465174 -0.46288845 -0.56868654
-0.99595 -0.2612725 -0.50807524 -0.46048716 -0.31770745 -0.37787873 -0.49169078 -0.2580211

linear2.weight f4 [3, 256]
00000000: 91ad d13c 9e44 aabd cd94 aabd 31b1 d6bd
00000010: f88e 00bd cc52 1ebd 3c54 923d 5c72 ac3d
00000020: 5db6 06be 9893 013e 68fd 96bd 283a 99be
00000030: 04b7 6dbd 2f0f b9bd 9b00 db3d 7dd2 fe3d
00000040: 5207 89bd cf45 5e3e da8a 65bd fea9 ed3c
00000050: 7a73 f33d 16ae 193e b69b 023e d91f 7bbd
00000060: 8b60 55bd 5a14 44be caa7 1ac0 9124 b2be
00000070: 6570 93be dd12 6dbe 8c86 9cbe 04f2 2a3e
00000080: 64cd 18bf 3013 223d 768f ae3c ddf7 e6bc
00000090: 912c babe 71a8 de3e cc1f cdbe 60a9 963c
000000a0: 9686 54be b2b2 fa3c e4b1 37bd f48d 883c
000000b0: 4d38 b73c b5c9 b33d a7f6 93be 0fc0 0fbd
000000c0: 560b ecbf f2f2 7b3d 3eb6 2a3d dd86 78be
000000d0: 6ffe 453e fa77 7dbd 356a d0bc 8c9e a93c
000000e0: dd11 053e fc2e 31bd 0b81 2cbe a4d1 54bd
000000f0: 4876 31bd bd05 d0bd 3279 443e 58e6 943d
00000100: 5b01 e7be ff0f 42bf 9535 b8bd 88ec 39bf
00000110: c87e f0be 7042 053e f384 97bd e03c b13c
00000120: 3fa3 fdbd 127e 053e d9a3 22bf 792c 49bd
00000130: 1a9e 64bd 4d6d 5c3d 84da febd 4f50 413d
00000140: 3d5f 9139 2096 12be f95d 863b 5518 c63d
00000150: 15af 2cbf de43 47bc 04bc 47bd 912e bbbd
00000160: 492f aebd 1c12 753d 6036 44be c845 4ebc
00000170: cce5 46bd 0026 54bd cc5c 683b 8ab7 613d
00000180: 0f23 78be 8ff9 c9bc aed2 84bc 9f83 44be
00000190: 35d8 adbd 4c19 7c3e 2a06 ac3a 0632 f33d
000001a0: 9c19 873b ba61 22be 959d a0bd 9681 13be
000001b0: 30f8 763d a102 30bd 97a5 a1bc d645 a4bc
000001c0: cf72 90bd 3213 60be 2200 093d 23cf 8b3e
000001d0: f42b 9ebd 833c 8bbe 6afa f53c 7788 11bf
000001e0: 535e 18be 7c98 a43d 7101 613e 02a3 93bb
000001f0: f5b6 7f3e bfe2 18bf 793b f3bd b1fa 433f
00000200: 768f 6dbd 0076 403b 11a6 86bd 5daf 803e
00000210: e96a 37bf b9e4 6a3e dbef f33f 6dda a9be
00000220: 3f37 6bbe 704f b63b 2a09 0fbf 029c 743d
00000230: 5b95 15be de64 09bd 5d5a b4bd 86d0 43be
00000240: 7bd2 9bbd bdaa fe3d 62fb d83f e90b 8dbc
00000250: 7976 a83b 6a69 533e c988 4ebf c9c7 b1bd
00000260: 1db6 053e e407 31bd 668d ba3d 24f0 32be
00000270: 35f9 9cbd 697c 8fbc 0ccd bbbd 7718 80bc
00000280: 9612 033d 7411 c33b 0b29 303e 3ffe 27be
00000290: 4b15 753e 9758 af3d 44c0 8cbe 7173 963b
000002a0: 0c5c 2f3d 6f04 2d3c 86e2 703f a7a2 5c3b
000002b0: 4cf7 3fbd bbe7 03bf 2993 32be fb04 07be
000002c0: 36d6 513d 471b 803e cb71 13bd 77da 3dbe
000002d0: 6964 62bf 417d 2ebc 428d aebd ef01 98bd
000002e0: 8ebd 70be faa0 a83c f9d8 c1be e4ba 09bc
000002f0: e41e 433e 7825 ccbd c806 233d 91b5 193d
00000300: 2907 bd3d c26b 11bc 2721 383e b9e8 493e
00000310: bf8c f8bc 17f3 0e3e 4f11 95bd 24d9 16be
00000320: 46b8 953d c535 463c 9d7f 523c 243a 143e
00000330: ba1f 363b c672 d7bd fbea b8bd 90a8 d1bd
00000340: 6356 97bc dec9 8abd e13c 28be 126b 57bd
00000350: 79ca 303e ac9b ab3c 9ba0 8a3e 95ab 7abc
00000360: 2c04 1bbe c1c5 20be aab9 8bbe 132c 1cbe
00000370: a322 6d3d 05d5 6abd 124c 82be 9298 573d
00000380: f9b2 1cbd 9dd2 713d e4c6 07be f522 87bd
00000390: 8c51 323e 5ed6 dc3d 0f4b 8f3d f922 9cbe
000003a0: 3724 a1bd a63e 90bc c6c8 3dbe c85c 483d
000003b0: 2926 37c0 ea43 2bbd b74c 8abe adc2 db3c
000003c0: 9b79 91bd 9c2b 183e d373 9dbe 9b59 6ebe
000003d0: b508 0bbc 3127 b4bd d22b bfbd 7420 253e
000003e0: 20d0 9dbe ee24 ae3d c79a 9b3d 4600 483d
000003f0: a57b 183e c84d 50bd 06d6 d43b 88d4 703e
0.025595458 -0.08313869 -0.08329163 -0.10483015 -0.031386346 -0.03865318 0.07144973 0.0842025
-0.13155504 0.12653959 -0.07372552 -0.29927182 -0.058035865 -0.09036099 0.10693475 0.12442491
-0.06690849 0.21706317 -0.056040622 0.029011723 0.1188726 0.15007815 0.12754712 -0.06130967
-0.052094024 -0.19148389 -2.416491 -0.34793523 -0.28796688 -0.23151727 -0.305714 0.16693884
-0.596884 0.03956908 0.021308642 -0.028194362 -0.36362126 0.43487886 -0.40063322 0.018391311
-0.20754465 0.030602787 -0.044847384 0.016669251 0.022365713 0.08778707 -0.28899118 -0.03509527
-1.844096 0.061510988 0.041677706 -0.24270196 0.1933534 -0.061881997 -0.025441268 0.020705484
0.12995096 -0.0432577 -0.16846101 -0.05195774 -0.043325692 -0.101573445 0.19186857 0.07270497
-0.45118222 -0.7580566 -0.08994595 -0.72626543 -0.46971726 0.13013625 -0.07398405 0.021635473
-0.12384652 0.13036373 -0.6353126 -0.049114678 -0.05581484 0.053815175 -0.12444022 0.04719573
0.00027727513 -0.1431508 0.004100558 0.0967261 -0.67454654 -0.012162177 -0.04876329 -0.09139741
-0.08505113 0.059831724 -0.19161367 -0.012589879 -0.048558995 -0.051794052 0.0035455702 0.055106677
-0.24232124 -0.024655132 -0.016213741 -0.19190834 -0.08488504 0.24619025 0.0013124396 0.118747756
0.004122926 -0.15857592 -0.078425564 -0.14404902 0.060295284 -0.042971257 -0.01973228 -0.020052832
-0.07053148 -0.21882322 0.033447392 0.2730647 -0.07723227 -0.27194604 0.030026633 -0.56848854
-0.14879732 0.080368966 0.21973206 -0.004505516 0.24972136 -0.5972099 -0.11876578 0.765544
-0.057998143 0.0029367208 -0.065746434 0.25133792 -0.71647507 0.22938813 1.9057573 -0.33174458
-0.22970293 0.005563669 -0.5587336 0.059719093 -0.14607756 -0.03354346 -0.08806298 -0.19122514
-0.07608505 0.124349095 1.6951716 -0.017217593 0.005141076 0.20645681 -0.8067747 -0.08680684
0.13057752 -0.043220416 0.09109001 -0.17474419 -0.0766472 -0.017515378 -0.09169969 -0.015636666
0.032000147 0.0059530083 0.17203157 -0.16405581 0.23933904 0.08561819 -0.27490437 0.0045913984
0.042812392 0.010560139 0.9409565 0.0033666284 -0.0468667 -0.5152547 -0.1743895 -0.13185494
0.051229678 0.2502081 -0.035997193 -0.18540369 -0.88434464 -0.01064998 -0.085230365 -0.07422244
-0.2350981 0.020584572 -0.3786085 -0.008406375 0.19054753 -0.09968084 0.03980139 0.03752667
0.09229881 -0.008875789 0.17981397 0.19717683 -0.03034055 0.13959919 -0.07278692 -0.1473127
0.07310538 0.012097781 0.012847808 0.14475304 0.0027789907 -0.10519938 -0.09029194 -0.10237229
-0.01847381 -0.06776784 -0.16429473 -0.052592345 0.17264737 0.020948254 0.27075657 -0.015299697
-0.1513831 -0.15700437 -0.27290088 -0.15251188 0.05789436 -0.057332058 -0.25448662 0.052635737
-0.03825662 0.059038747 -0.13259465 -0.065984644 0.1741392 0.10783075 0.06996738 -0.30495432
-0.078682356 -0.017607998 -0.1853362 0.048916608 -2.861704 -0.041812815 -0.27011654 0.026826227
-0.071032725 0.14860386 -0.3075243 -0.2327637 -0.008485963 -0.08796538 -0.0933453 0.16125661
-0.3082285 0.085031375 0.07597881 0.048828386 0.14890917 -0.050855428 0.00649524 0.23518574

linear2.bias f4 [3]
00000000: 413a 023e 76c8 88bf 906a b9bf
0.12717535 -1.0686176 -1.4485645
